node {
  name: "RealData"
  op: "Placeholder"
  attr {
    key: "dtype"
    value {
      type: DT_FLOAT
    }
  }
  attr {
    key: "shape"
    value {
      shape {
        dim {
          size: 400
        }
        dim {
          size: 43
        }
      }
    }
  }
}
node {
  name: "random_normal/shape"
  op: "Const"
  attr {
    key: "dtype"
    value {
      type: DT_INT32
    }
  }
  attr {
    key: "value"
    value {
      tensor {
        dtype: DT_INT32
        tensor_shape {
          dim {
            size: 2
          }
        }
        tensor_content: "\220\001\000\000d\000\000\000"
      }
    }
  }
}
node {
  name: "random_normal/mean"
  op: "Const"
  attr {
    key: "dtype"
    value {
      type: DT_FLOAT
    }
  }
  attr {
    key: "value"
    value {
      tensor {
        dtype: DT_FLOAT
        tensor_shape {
        }
        float_val: 0.0
      }
    }
  }
}
node {
  name: "random_normal/stddev"
  op: "Const"
  attr {
    key: "dtype"
    value {
      type: DT_FLOAT
    }
  }
  attr {
    key: "value"
    value {
      tensor {
        dtype: DT_FLOAT
        tensor_shape {
        }
        float_val: 1.0
      }
    }
  }
}
node {
  name: "random_normal/RandomStandardNormal"
  op: "RandomStandardNormal"
  input: "random_normal/shape"
  attr {
    key: "T"
    value {
      type: DT_INT32
    }
  }
  attr {
    key: "dtype"
    value {
      type: DT_FLOAT
    }
  }
  attr {
    key: "seed"
    value {
      i: 0
    }
  }
  attr {
    key: "seed2"
    value {
      i: 0
    }
  }
}
node {
  name: "random_normal/mul"
  op: "Mul"
  input: "random_normal/RandomStandardNormal"
  input: "random_normal/stddev"
  attr {
    key: "T"
    value {
      type: DT_FLOAT
    }
  }
}
node {
  name: "random_normal"
  op: "AddV2"
  input: "random_normal/mul"
  input: "random_normal/mean"
  attr {
    key: "T"
    value {
      type: DT_FLOAT
    }
  }
}
node {
  name: "Generator.1/kernel/Initializer/random_uniform/shape"
  op: "Const"
  attr {
    key: "_class"
    value {
      list {
        s: "loc:@Generator.1/kernel"
      }
    }
  }
  attr {
    key: "dtype"
    value {
      type: DT_INT32
    }
  }
  attr {
    key: "value"
    value {
      tensor {
        dtype: DT_INT32
        tensor_shape {
          dim {
            size: 2
          }
        }
        tensor_content: "d\000\000\000V\000\000\000"
      }
    }
  }
}
node {
  name: "Generator.1/kernel/Initializer/random_uniform/min"
  op: "Const"
  attr {
    key: "_class"
    value {
      list {
        s: "loc:@Generator.1/kernel"
      }
    }
  }
  attr {
    key: "dtype"
    value {
      type: DT_FLOAT
    }
  }
  attr {
    key: "value"
    value {
      tensor {
        dtype: DT_FLOAT
        tensor_shape {
        }
        float_val: -0.17960530519485474
      }
    }
  }
}
node {
  name: "Generator.1/kernel/Initializer/random_uniform/max"
  op: "Const"
  attr {
    key: "_class"
    value {
      list {
        s: "loc:@Generator.1/kernel"
      }
    }
  }
  attr {
    key: "dtype"
    value {
      type: DT_FLOAT
    }
  }
  attr {
    key: "value"
    value {
      tensor {
        dtype: DT_FLOAT
        tensor_shape {
        }
        float_val: 0.17960530519485474
      }
    }
  }
}
node {
  name: "Generator.1/kernel/Initializer/random_uniform/RandomUniform"
  op: "RandomUniform"
  input: "Generator.1/kernel/Initializer/random_uniform/shape"
  attr {
    key: "T"
    value {
      type: DT_INT32
    }
  }
  attr {
    key: "_class"
    value {
      list {
        s: "loc:@Generator.1/kernel"
      }
    }
  }
  attr {
    key: "dtype"
    value {
      type: DT_FLOAT
    }
  }
  attr {
    key: "seed"
    value {
      i: 0
    }
  }
  attr {
    key: "seed2"
    value {
      i: 0
    }
  }
}
node {
  name: "Generator.1/kernel/Initializer/random_uniform/sub"
  op: "Sub"
  input: "Generator.1/kernel/Initializer/random_uniform/max"
  input: "Generator.1/kernel/Initializer/random_uniform/min"
  attr {
    key: "T"
    value {
      type: DT_FLOAT
    }
  }
  attr {
    key: "_class"
    value {
      list {
        s: "loc:@Generator.1/kernel"
      }
    }
  }
}
node {
  name: "Generator.1/kernel/Initializer/random_uniform/mul"
  op: "Mul"
  input: "Generator.1/kernel/Initializer/random_uniform/RandomUniform"
  input: "Generator.1/kernel/Initializer/random_uniform/sub"
  attr {
    key: "T"
    value {
      type: DT_FLOAT
    }
  }
  attr {
    key: "_class"
    value {
      list {
        s: "loc:@Generator.1/kernel"
      }
    }
  }
}
node {
  name: "Generator.1/kernel/Initializer/random_uniform"
  op: "AddV2"
  input: "Generator.1/kernel/Initializer/random_uniform/mul"
  input: "Generator.1/kernel/Initializer/random_uniform/min"
  attr {
    key: "T"
    value {
      type: DT_FLOAT
    }
  }
  attr {
    key: "_class"
    value {
      list {
        s: "loc:@Generator.1/kernel"
      }
    }
  }
}
node {
  name: "Generator.1/kernel"
  op: "VarHandleOp"
  attr {
    key: "_class"
    value {
      list {
        s: "loc:@Generator.1/kernel"
      }
    }
  }
  attr {
    key: "allowed_devices"
    value {
      list {
      }
    }
  }
  attr {
    key: "container"
    value {
      s: ""
    }
  }
  attr {
    key: "debug_name"
    value {
      s: "Generator.1/kernel/"
    }
  }
  attr {
    key: "dtype"
    value {
      type: DT_FLOAT
    }
  }
  attr {
    key: "shape"
    value {
      shape {
        dim {
          size: 100
        }
        dim {
          size: 86
        }
      }
    }
  }
  attr {
    key: "shared_name"
    value {
      s: "Generator.1/kernel"
    }
  }
}
node {
  name: "Generator.1/kernel/IsInitialized/VarIsInitializedOp"
  op: "VarIsInitializedOp"
  input: "Generator.1/kernel"
}
node {
  name: "Generator.1/kernel/Assign"
  op: "AssignVariableOp"
  input: "Generator.1/kernel"
  input: "Generator.1/kernel/Initializer/random_uniform"
  attr {
    key: "_has_manual_control_dependencies"
    value {
      b: true
    }
  }
  attr {
    key: "dtype"
    value {
      type: DT_FLOAT
    }
  }
  attr {
    key: "validate_shape"
    value {
      b: false
    }
  }
}
node {
  name: "Generator.1/kernel/Read/ReadVariableOp"
  op: "ReadVariableOp"
  input: "Generator.1/kernel"
  attr {
    key: "dtype"
    value {
      type: DT_FLOAT
    }
  }
}
node {
  name: "Generator.1/bias/Initializer/zeros"
  op: "Const"
  attr {
    key: "_class"
    value {
      list {
        s: "loc:@Generator.1/bias"
      }
    }
  }
  attr {
    key: "dtype"
    value {
      type: DT_FLOAT
    }
  }
  attr {
    key: "value"
    value {
      tensor {
        dtype: DT_FLOAT
        tensor_shape {
          dim {
            size: 86
          }
        }
        float_val: 0.0
      }
    }
  }
}
node {
  name: "Generator.1/bias"
  op: "VarHandleOp"
  attr {
    key: "_class"
    value {
      list {
        s: "loc:@Generator.1/bias"
      }
    }
  }
  attr {
    key: "allowed_devices"
    value {
      list {
      }
    }
  }
  attr {
    key: "container"
    value {
      s: ""
    }
  }
  attr {
    key: "debug_name"
    value {
      s: "Generator.1/bias/"
    }
  }
  attr {
    key: "dtype"
    value {
      type: DT_FLOAT
    }
  }
  attr {
    key: "shape"
    value {
      shape {
        dim {
          size: 86
        }
      }
    }
  }
  attr {
    key: "shared_name"
    value {
      s: "Generator.1/bias"
    }
  }
}
node {
  name: "Generator.1/bias/IsInitialized/VarIsInitializedOp"
  op: "VarIsInitializedOp"
  input: "Generator.1/bias"
}
node {
  name: "Generator.1/bias/Assign"
  op: "AssignVariableOp"
  input: "Generator.1/bias"
  input: "Generator.1/bias/Initializer/zeros"
  attr {
    key: "_has_manual_control_dependencies"
    value {
      b: true
    }
  }
  attr {
    key: "dtype"
    value {
      type: DT_FLOAT
    }
  }
  attr {
    key: "validate_shape"
    value {
      b: false
    }
  }
}
node {
  name: "Generator.1/bias/Read/ReadVariableOp"
  op: "ReadVariableOp"
  input: "Generator.1/bias"
  attr {
    key: "dtype"
    value {
      type: DT_FLOAT
    }
  }
}
node {
  name: "Generator.1/MatMul/ReadVariableOp"
  op: "ReadVariableOp"
  input: "Generator.1/kernel"
  attr {
    key: "dtype"
    value {
      type: DT_FLOAT
    }
  }
}
node {
  name: "Generator.1/MatMul"
  op: "MatMul"
  input: "random_normal"
  input: "Generator.1/MatMul/ReadVariableOp"
  attr {
    key: "T"
    value {
      type: DT_FLOAT
    }
  }
  attr {
    key: "grad_a"
    value {
      b: false
    }
  }
  attr {
    key: "grad_b"
    value {
      b: false
    }
  }
  attr {
    key: "transpose_a"
    value {
      b: false
    }
  }
  attr {
    key: "transpose_b"
    value {
      b: false
    }
  }
}
node {
  name: "Generator.1/add/ReadVariableOp"
  op: "ReadVariableOp"
  input: "Generator.1/bias"
  attr {
    key: "dtype"
    value {
      type: DT_FLOAT
    }
  }
}
node {
  name: "Generator.1/add"
  op: "AddV2"
  input: "Generator.1/MatMul"
  input: "Generator.1/add/ReadVariableOp"
  attr {
    key: "T"
    value {
      type: DT_FLOAT
    }
  }
}
node {
  name: "Generator.1/Relu"
  op: "Relu"
  input: "Generator.1/add"
  attr {
    key: "T"
    value {
      type: DT_FLOAT
    }
  }
}
node {
  name: "Generator.2/kernel/Initializer/random_uniform/shape"
  op: "Const"
  attr {
    key: "_class"
    value {
      list {
        s: "loc:@Generator.2/kernel"
      }
    }
  }
  attr {
    key: "dtype"
    value {
      type: DT_INT32
    }
  }
  attr {
    key: "value"
    value {
      tensor {
        dtype: DT_INT32
        tensor_shape {
          dim {
            size: 2
          }
        }
        tensor_content: "V\000\000\000@\000\000\000"
      }
    }
  }
}
node {
  name: "Generator.2/kernel/Initializer/random_uniform/min"
  op: "Const"
  attr {
    key: "_class"
    value {
      list {
        s: "loc:@Generator.2/kernel"
      }
    }
  }
  attr {
    key: "dtype"
    value {
      type: DT_FLOAT
    }
  }
  attr {
    key: "value"
    value {
      tensor {
        dtype: DT_FLOAT
        tensor_shape {
        }
        float_val: -0.20000000298023224
      }
    }
  }
}
node {
  name: "Generator.2/kernel/Initializer/random_uniform/max"
  op: "Const"
  attr {
    key: "_class"
    value {
      list {
        s: "loc:@Generator.2/kernel"
      }
    }
  }
  attr {
    key: "dtype"
    value {
      type: DT_FLOAT
    }
  }
  attr {
    key: "value"
    value {
      tensor {
        dtype: DT_FLOAT
        tensor_shape {
        }
        float_val: 0.20000000298023224
      }
    }
  }
}
node {
  name: "Generator.2/kernel/Initializer/random_uniform/RandomUniform"
  op: "RandomUniform"
  input: "Generator.2/kernel/Initializer/random_uniform/shape"
  attr {
    key: "T"
    value {
      type: DT_INT32
    }
  }
  attr {
    key: "_class"
    value {
      list {
        s: "loc:@Generator.2/kernel"
      }
    }
  }
  attr {
    key: "dtype"
    value {
      type: DT_FLOAT
    }
  }
  attr {
    key: "seed"
    value {
      i: 0
    }
  }
  attr {
    key: "seed2"
    value {
      i: 0
    }
  }
}
node {
  name: "Generator.2/kernel/Initializer/random_uniform/sub"
  op: "Sub"
  input: "Generator.2/kernel/Initializer/random_uniform/max"
  input: "Generator.2/kernel/Initializer/random_uniform/min"
  attr {
    key: "T"
    value {
      type: DT_FLOAT
    }
  }
  attr {
    key: "_class"
    value {
      list {
        s: "loc:@Generator.2/kernel"
      }
    }
  }
}
node {
  name: "Generator.2/kernel/Initializer/random_uniform/mul"
  op: "Mul"
  input: "Generator.2/kernel/Initializer/random_uniform/RandomUniform"
  input: "Generator.2/kernel/Initializer/random_uniform/sub"
  attr {
    key: "T"
    value {
      type: DT_FLOAT
    }
  }
  attr {
    key: "_class"
    value {
      list {
        s: "loc:@Generator.2/kernel"
      }
    }
  }
}
node {
  name: "Generator.2/kernel/Initializer/random_uniform"
  op: "AddV2"
  input: "Generator.2/kernel/Initializer/random_uniform/mul"
  input: "Generator.2/kernel/Initializer/random_uniform/min"
  attr {
    key: "T"
    value {
      type: DT_FLOAT
    }
  }
  attr {
    key: "_class"
    value {
      list {
        s: "loc:@Generator.2/kernel"
      }
    }
  }
}
node {
  name: "Generator.2/kernel"
  op: "VarHandleOp"
  attr {
    key: "_class"
    value {
      list {
        s: "loc:@Generator.2/kernel"
      }
    }
  }
  attr {
    key: "allowed_devices"
    value {
      list {
      }
    }
  }
  attr {
    key: "container"
    value {
      s: ""
    }
  }
  attr {
    key: "debug_name"
    value {
      s: "Generator.2/kernel/"
    }
  }
  attr {
    key: "dtype"
    value {
      type: DT_FLOAT
    }
  }
  attr {
    key: "shape"
    value {
      shape {
        dim {
          size: 86
        }
        dim {
          size: 64
        }
      }
    }
  }
  attr {
    key: "shared_name"
    value {
      s: "Generator.2/kernel"
    }
  }
}
node {
  name: "Generator.2/kernel/IsInitialized/VarIsInitializedOp"
  op: "VarIsInitializedOp"
  input: "Generator.2/kernel"
}
node {
  name: "Generator.2/kernel/Assign"
  op: "AssignVariableOp"
  input: "Generator.2/kernel"
  input: "Generator.2/kernel/Initializer/random_uniform"
  attr {
    key: "_has_manual_control_dependencies"
    value {
      b: true
    }
  }
  attr {
    key: "dtype"
    value {
      type: DT_FLOAT
    }
  }
  attr {
    key: "validate_shape"
    value {
      b: false
    }
  }
}
node {
  name: "Generator.2/kernel/Read/ReadVariableOp"
  op: "ReadVariableOp"
  input: "Generator.2/kernel"
  attr {
    key: "dtype"
    value {
      type: DT_FLOAT
    }
  }
}
node {
  name: "Generator.2/bias/Initializer/zeros"
  op: "Const"
  attr {
    key: "_class"
    value {
      list {
        s: "loc:@Generator.2/bias"
      }
    }
  }
  attr {
    key: "dtype"
    value {
      type: DT_FLOAT
    }
  }
  attr {
    key: "value"
    value {
      tensor {
        dtype: DT_FLOAT
        tensor_shape {
          dim {
            size: 64
          }
        }
        float_val: 0.0
      }
    }
  }
}
node {
  name: "Generator.2/bias"
  op: "VarHandleOp"
  attr {
    key: "_class"
    value {
      list {
        s: "loc:@Generator.2/bias"
      }
    }
  }
  attr {
    key: "allowed_devices"
    value {
      list {
      }
    }
  }
  attr {
    key: "container"
    value {
      s: ""
    }
  }
  attr {
    key: "debug_name"
    value {
      s: "Generator.2/bias/"
    }
  }
  attr {
    key: "dtype"
    value {
      type: DT_FLOAT
    }
  }
  attr {
    key: "shape"
    value {
      shape {
        dim {
          size: 64
        }
      }
    }
  }
  attr {
    key: "shared_name"
    value {
      s: "Generator.2/bias"
    }
  }
}
node {
  name: "Generator.2/bias/IsInitialized/VarIsInitializedOp"
  op: "VarIsInitializedOp"
  input: "Generator.2/bias"
}
node {
  name: "Generator.2/bias/Assign"
  op: "AssignVariableOp"
  input: "Generator.2/bias"
  input: "Generator.2/bias/Initializer/zeros"
  attr {
    key: "_has_manual_control_dependencies"
    value {
      b: true
    }
  }
  attr {
    key: "dtype"
    value {
      type: DT_FLOAT
    }
  }
  attr {
    key: "validate_shape"
    value {
      b: false
    }
  }
}
node {
  name: "Generator.2/bias/Read/ReadVariableOp"
  op: "ReadVariableOp"
  input: "Generator.2/bias"
  attr {
    key: "dtype"
    value {
      type: DT_FLOAT
    }
  }
}
node {
  name: "Generator.2/MatMul/ReadVariableOp"
  op: "ReadVariableOp"
  input: "Generator.2/kernel"
  attr {
    key: "dtype"
    value {
      type: DT_FLOAT
    }
  }
}
node {
  name: "Generator.2/MatMul"
  op: "MatMul"
  input: "Generator.1/Relu"
  input: "Generator.2/MatMul/ReadVariableOp"
  attr {
    key: "T"
    value {
      type: DT_FLOAT
    }
  }
  attr {
    key: "grad_a"
    value {
      b: false
    }
  }
  attr {
    key: "grad_b"
    value {
      b: false
    }
  }
  attr {
    key: "transpose_a"
    value {
      b: false
    }
  }
  attr {
    key: "transpose_b"
    value {
      b: false
    }
  }
}
node {
  name: "Generator.2/add/ReadVariableOp"
  op: "ReadVariableOp"
  input: "Generator.2/bias"
  attr {
    key: "dtype"
    value {
      type: DT_FLOAT
    }
  }
}
node {
  name: "Generator.2/add"
  op: "AddV2"
  input: "Generator.2/MatMul"
  input: "Generator.2/add/ReadVariableOp"
  attr {
    key: "T"
    value {
      type: DT_FLOAT
    }
  }
}
node {
  name: "Generator.2/Relu"
  op: "Relu"
  input: "Generator.2/add"
  attr {
    key: "T"
    value {
      type: DT_FLOAT
    }
  }
}
node {
  name: "Generator.3/kernel/Initializer/random_uniform/shape"
  op: "Const"
  attr {
    key: "_class"
    value {
      list {
        s: "loc:@Generator.3/kernel"
      }
    }
  }
  attr {
    key: "dtype"
    value {
      type: DT_INT32
    }
  }
  attr {
    key: "value"
    value {
      tensor {
        dtype: DT_INT32
        tensor_shape {
          dim {
            size: 2
          }
        }
        tensor_content: "@\000\000\000+\000\000\000"
      }
    }
  }
}
node {
  name: "Generator.3/kernel/Initializer/random_uniform/min"
  op: "Const"
  attr {
    key: "_class"
    value {
      list {
        s: "loc:@Generator.3/kernel"
      }
    }
  }
  attr {
    key: "dtype"
    value {
      type: DT_FLOAT
    }
  }
  attr {
    key: "value"
    value {
      tensor {
        dtype: DT_FLOAT
        tensor_shape {
        }
        float_val: -0.2368011176586151
      }
    }
  }
}
node {
  name: "Generator.3/kernel/Initializer/random_uniform/max"
  op: "Const"
  attr {
    key: "_class"
    value {
      list {
        s: "loc:@Generator.3/kernel"
      }
    }
  }
  attr {
    key: "dtype"
    value {
      type: DT_FLOAT
    }
  }
  attr {
    key: "value"
    value {
      tensor {
        dtype: DT_FLOAT
        tensor_shape {
        }
        float_val: 0.2368011176586151
      }
    }
  }
}
node {
  name: "Generator.3/kernel/Initializer/random_uniform/RandomUniform"
  op: "RandomUniform"
  input: "Generator.3/kernel/Initializer/random_uniform/shape"
  attr {
    key: "T"
    value {
      type: DT_INT32
    }
  }
  attr {
    key: "_class"
    value {
      list {
        s: "loc:@Generator.3/kernel"
      }
    }
  }
  attr {
    key: "dtype"
    value {
      type: DT_FLOAT
    }
  }
  attr {
    key: "seed"
    value {
      i: 0
    }
  }
  attr {
    key: "seed2"
    value {
      i: 0
    }
  }
}
node {
  name: "Generator.3/kernel/Initializer/random_uniform/sub"
  op: "Sub"
  input: "Generator.3/kernel/Initializer/random_uniform/max"
  input: "Generator.3/kernel/Initializer/random_uniform/min"
  attr {
    key: "T"
    value {
      type: DT_FLOAT
    }
  }
  attr {
    key: "_class"
    value {
      list {
        s: "loc:@Generator.3/kernel"
      }
    }
  }
}
node {
  name: "Generator.3/kernel/Initializer/random_uniform/mul"
  op: "Mul"
  input: "Generator.3/kernel/Initializer/random_uniform/RandomUniform"
  input: "Generator.3/kernel/Initializer/random_uniform/sub"
  attr {
    key: "T"
    value {
      type: DT_FLOAT
    }
  }
  attr {
    key: "_class"
    value {
      list {
        s: "loc:@Generator.3/kernel"
      }
    }
  }
}
node {
  name: "Generator.3/kernel/Initializer/random_uniform"
  op: "AddV2"
  input: "Generator.3/kernel/Initializer/random_uniform/mul"
  input: "Generator.3/kernel/Initializer/random_uniform/min"
  attr {
    key: "T"
    value {
      type: DT_FLOAT
    }
  }
  attr {
    key: "_class"
    value {
      list {
        s: "loc:@Generator.3/kernel"
      }
    }
  }
}
node {
  name: "Generator.3/kernel"
  op: "VarHandleOp"
  attr {
    key: "_class"
    value {
      list {
        s: "loc:@Generator.3/kernel"
      }
    }
  }
  attr {
    key: "allowed_devices"
    value {
      list {
      }
    }
  }
  attr {
    key: "container"
    value {
      s: ""
    }
  }
  attr {
    key: "debug_name"
    value {
      s: "Generator.3/kernel/"
    }
  }
  attr {
    key: "dtype"
    value {
      type: DT_FLOAT
    }
  }
  attr {
    key: "shape"
    value {
      shape {
        dim {
          size: 64
        }
        dim {
          size: 43
        }
      }
    }
  }
  attr {
    key: "shared_name"
    value {
      s: "Generator.3/kernel"
    }
  }
}
node {
  name: "Generator.3/kernel/IsInitialized/VarIsInitializedOp"
  op: "VarIsInitializedOp"
  input: "Generator.3/kernel"
}
node {
  name: "Generator.3/kernel/Assign"
  op: "AssignVariableOp"
  input: "Generator.3/kernel"
  input: "Generator.3/kernel/Initializer/random_uniform"
  attr {
    key: "_has_manual_control_dependencies"
    value {
      b: true
    }
  }
  attr {
    key: "dtype"
    value {
      type: DT_FLOAT
    }
  }
  attr {
    key: "validate_shape"
    value {
      b: false
    }
  }
}
node {
  name: "Generator.3/kernel/Read/ReadVariableOp"
  op: "ReadVariableOp"
  input: "Generator.3/kernel"
  attr {
    key: "dtype"
    value {
      type: DT_FLOAT
    }
  }
}
node {
  name: "Generator.3/bias/Initializer/zeros"
  op: "Const"
  attr {
    key: "_class"
    value {
      list {
        s: "loc:@Generator.3/bias"
      }
    }
  }
  attr {
    key: "dtype"
    value {
      type: DT_FLOAT
    }
  }
  attr {
    key: "value"
    value {
      tensor {
        dtype: DT_FLOAT
        tensor_shape {
          dim {
            size: 43
          }
        }
        float_val: 0.0
      }
    }
  }
}
node {
  name: "Generator.3/bias"
  op: "VarHandleOp"
  attr {
    key: "_class"
    value {
      list {
        s: "loc:@Generator.3/bias"
      }
    }
  }
  attr {
    key: "allowed_devices"
    value {
      list {
      }
    }
  }
  attr {
    key: "container"
    value {
      s: ""
    }
  }
  attr {
    key: "debug_name"
    value {
      s: "Generator.3/bias/"
    }
  }
  attr {
    key: "dtype"
    value {
      type: DT_FLOAT
    }
  }
  attr {
    key: "shape"
    value {
      shape {
        dim {
          size: 43
        }
      }
    }
  }
  attr {
    key: "shared_name"
    value {
      s: "Generator.3/bias"
    }
  }
}
node {
  name: "Generator.3/bias/IsInitialized/VarIsInitializedOp"
  op: "VarIsInitializedOp"
  input: "Generator.3/bias"
}
node {
  name: "Generator.3/bias/Assign"
  op: "AssignVariableOp"
  input: "Generator.3/bias"
  input: "Generator.3/bias/Initializer/zeros"
  attr {
    key: "_has_manual_control_dependencies"
    value {
      b: true
    }
  }
  attr {
    key: "dtype"
    value {
      type: DT_FLOAT
    }
  }
  attr {
    key: "validate_shape"
    value {
      b: false
    }
  }
}
node {
  name: "Generator.3/bias/Read/ReadVariableOp"
  op: "ReadVariableOp"
  input: "Generator.3/bias"
  attr {
    key: "dtype"
    value {
      type: DT_FLOAT
    }
  }
}
node {
  name: "Generator.3/MatMul/ReadVariableOp"
  op: "ReadVariableOp"
  input: "Generator.3/kernel"
  attr {
    key: "dtype"
    value {
      type: DT_FLOAT
    }
  }
}
node {
  name: "Generator.3/MatMul"
  op: "MatMul"
  input: "Generator.2/Relu"
  input: "Generator.3/MatMul/ReadVariableOp"
  attr {
    key: "T"
    value {
      type: DT_FLOAT
    }
  }
  attr {
    key: "grad_a"
    value {
      b: false
    }
  }
  attr {
    key: "grad_b"
    value {
      b: false
    }
  }
  attr {
    key: "transpose_a"
    value {
      b: false
    }
  }
  attr {
    key: "transpose_b"
    value {
      b: false
    }
  }
}
node {
  name: "Generator.3/add/ReadVariableOp"
  op: "ReadVariableOp"
  input: "Generator.3/bias"
  attr {
    key: "dtype"
    value {
      type: DT_FLOAT
    }
  }
}
node {
  name: "Generator.3/add"
  op: "AddV2"
  input: "Generator.3/MatMul"
  input: "Generator.3/add/ReadVariableOp"
  attr {
    key: "T"
    value {
      type: DT_FLOAT
    }
  }
}
node {
  name: "Generator.3/Sigmoid"
  op: "Sigmoid"
  input: "Generator.3/add"
  attr {
    key: "T"
    value {
      type: DT_FLOAT
    }
  }
}
node {
  name: "Discriminator.1/kernel/Initializer/random_uniform/shape"
  op: "Const"
  attr {
    key: "_class"
    value {
      list {
        s: "loc:@Discriminator.1/kernel"
      }
    }
  }
  attr {
    key: "dtype"
    value {
      type: DT_INT32
    }
  }
  attr {
    key: "value"
    value {
      tensor {
        dtype: DT_INT32
        tensor_shape {
          dim {
            size: 2
          }
        }
        tensor_content: "+\000\000\000@\000\000\000"
      }
    }
  }
}
node {
  name: "Discriminator.1/kernel/Initializer/random_uniform/min"
  op: "Const"
  attr {
    key: "_class"
    value {
      list {
        s: "loc:@Discriminator.1/kernel"
      }
    }
  }
  attr {
    key: "dtype"
    value {
      type: DT_FLOAT
    }
  }
  attr {
    key: "value"
    value {
      tensor {
        dtype: DT_FLOAT
        tensor_shape {
        }
        float_val: -0.2368011176586151
      }
    }
  }
}
node {
  name: "Discriminator.1/kernel/Initializer/random_uniform/max"
  op: "Const"
  attr {
    key: "_class"
    value {
      list {
        s: "loc:@Discriminator.1/kernel"
      }
    }
  }
  attr {
    key: "dtype"
    value {
      type: DT_FLOAT
    }
  }
  attr {
    key: "value"
    value {
      tensor {
        dtype: DT_FLOAT
        tensor_shape {
        }
        float_val: 0.2368011176586151
      }
    }
  }
}
node {
  name: "Discriminator.1/kernel/Initializer/random_uniform/RandomUniform"
  op: "RandomUniform"
  input: "Discriminator.1/kernel/Initializer/random_uniform/shape"
  attr {
    key: "T"
    value {
      type: DT_INT32
    }
  }
  attr {
    key: "_class"
    value {
      list {
        s: "loc:@Discriminator.1/kernel"
      }
    }
  }
  attr {
    key: "dtype"
    value {
      type: DT_FLOAT
    }
  }
  attr {
    key: "seed"
    value {
      i: 0
    }
  }
  attr {
    key: "seed2"
    value {
      i: 0
    }
  }
}
node {
  name: "Discriminator.1/kernel/Initializer/random_uniform/sub"
  op: "Sub"
  input: "Discriminator.1/kernel/Initializer/random_uniform/max"
  input: "Discriminator.1/kernel/Initializer/random_uniform/min"
  attr {
    key: "T"
    value {
      type: DT_FLOAT
    }
  }
  attr {
    key: "_class"
    value {
      list {
        s: "loc:@Discriminator.1/kernel"
      }
    }
  }
}
node {
  name: "Discriminator.1/kernel/Initializer/random_uniform/mul"
  op: "Mul"
  input: "Discriminator.1/kernel/Initializer/random_uniform/RandomUniform"
  input: "Discriminator.1/kernel/Initializer/random_uniform/sub"
  attr {
    key: "T"
    value {
      type: DT_FLOAT
    }
  }
  attr {
    key: "_class"
    value {
      list {
        s: "loc:@Discriminator.1/kernel"
      }
    }
  }
}
node {
  name: "Discriminator.1/kernel/Initializer/random_uniform"
  op: "AddV2"
  input: "Discriminator.1/kernel/Initializer/random_uniform/mul"
  input: "Discriminator.1/kernel/Initializer/random_uniform/min"
  attr {
    key: "T"
    value {
      type: DT_FLOAT
    }
  }
  attr {
    key: "_class"
    value {
      list {
        s: "loc:@Discriminator.1/kernel"
      }
    }
  }
}
node {
  name: "Discriminator.1/kernel"
  op: "VarHandleOp"
  attr {
    key: "_class"
    value {
      list {
        s: "loc:@Discriminator.1/kernel"
      }
    }
  }
  attr {
    key: "allowed_devices"
    value {
      list {
      }
    }
  }
  attr {
    key: "container"
    value {
      s: ""
    }
  }
  attr {
    key: "debug_name"
    value {
      s: "Discriminator.1/kernel/"
    }
  }
  attr {
    key: "dtype"
    value {
      type: DT_FLOAT
    }
  }
  attr {
    key: "shape"
    value {
      shape {
        dim {
          size: 43
        }
        dim {
          size: 64
        }
      }
    }
  }
  attr {
    key: "shared_name"
    value {
      s: "Discriminator.1/kernel"
    }
  }
}
node {
  name: "Discriminator.1/kernel/IsInitialized/VarIsInitializedOp"
  op: "VarIsInitializedOp"
  input: "Discriminator.1/kernel"
}
node {
  name: "Discriminator.1/kernel/Assign"
  op: "AssignVariableOp"
  input: "Discriminator.1/kernel"
  input: "Discriminator.1/kernel/Initializer/random_uniform"
  attr {
    key: "_has_manual_control_dependencies"
    value {
      b: true
    }
  }
  attr {
    key: "dtype"
    value {
      type: DT_FLOAT
    }
  }
  attr {
    key: "validate_shape"
    value {
      b: false
    }
  }
}
node {
  name: "Discriminator.1/kernel/Read/ReadVariableOp"
  op: "ReadVariableOp"
  input: "Discriminator.1/kernel"
  attr {
    key: "dtype"
    value {
      type: DT_FLOAT
    }
  }
}
node {
  name: "Discriminator.1/bias/Initializer/zeros"
  op: "Const"
  attr {
    key: "_class"
    value {
      list {
        s: "loc:@Discriminator.1/bias"
      }
    }
  }
  attr {
    key: "dtype"
    value {
      type: DT_FLOAT
    }
  }
  attr {
    key: "value"
    value {
      tensor {
        dtype: DT_FLOAT
        tensor_shape {
          dim {
            size: 64
          }
        }
        float_val: 0.0
      }
    }
  }
}
node {
  name: "Discriminator.1/bias"
  op: "VarHandleOp"
  attr {
    key: "_class"
    value {
      list {
        s: "loc:@Discriminator.1/bias"
      }
    }
  }
  attr {
    key: "allowed_devices"
    value {
      list {
      }
    }
  }
  attr {
    key: "container"
    value {
      s: ""
    }
  }
  attr {
    key: "debug_name"
    value {
      s: "Discriminator.1/bias/"
    }
  }
  attr {
    key: "dtype"
    value {
      type: DT_FLOAT
    }
  }
  attr {
    key: "shape"
    value {
      shape {
        dim {
          size: 64
        }
      }
    }
  }
  attr {
    key: "shared_name"
    value {
      s: "Discriminator.1/bias"
    }
  }
}
node {
  name: "Discriminator.1/bias/IsInitialized/VarIsInitializedOp"
  op: "VarIsInitializedOp"
  input: "Discriminator.1/bias"
}
node {
  name: "Discriminator.1/bias/Assign"
  op: "AssignVariableOp"
  input: "Discriminator.1/bias"
  input: "Discriminator.1/bias/Initializer/zeros"
  attr {
    key: "_has_manual_control_dependencies"
    value {
      b: true
    }
  }
  attr {
    key: "dtype"
    value {
      type: DT_FLOAT
    }
  }
  attr {
    key: "validate_shape"
    value {
      b: false
    }
  }
}
node {
  name: "Discriminator.1/bias/Read/ReadVariableOp"
  op: "ReadVariableOp"
  input: "Discriminator.1/bias"
  attr {
    key: "dtype"
    value {
      type: DT_FLOAT
    }
  }
}
node {
  name: "Discriminator.1/MatMul/ReadVariableOp"
  op: "ReadVariableOp"
  input: "Discriminator.1/kernel"
  attr {
    key: "dtype"
    value {
      type: DT_FLOAT
    }
  }
}
node {
  name: "Discriminator.1/MatMul"
  op: "MatMul"
  input: "RealData"
  input: "Discriminator.1/MatMul/ReadVariableOp"
  attr {
    key: "T"
    value {
      type: DT_FLOAT
    }
  }
  attr {
    key: "grad_a"
    value {
      b: false
    }
  }
  attr {
    key: "grad_b"
    value {
      b: false
    }
  }
  attr {
    key: "transpose_a"
    value {
      b: false
    }
  }
  attr {
    key: "transpose_b"
    value {
      b: false
    }
  }
}
node {
  name: "Discriminator.1/add/ReadVariableOp"
  op: "ReadVariableOp"
  input: "Discriminator.1/bias"
  attr {
    key: "dtype"
    value {
      type: DT_FLOAT
    }
  }
}
node {
  name: "Discriminator.1/add"
  op: "AddV2"
  input: "Discriminator.1/MatMul"
  input: "Discriminator.1/add/ReadVariableOp"
  attr {
    key: "T"
    value {
      type: DT_FLOAT
    }
  }
}
node {
  name: "Discriminator.1/LeakyRelu"
  op: "LeakyRelu"
  input: "Discriminator.1/add"
  attr {
    key: "T"
    value {
      type: DT_FLOAT
    }
  }
  attr {
    key: "alpha"
    value {
      f: 0.20000000298023224
    }
  }
}
node {
  name: "Discriminator.2/kernel/Initializer/random_uniform/shape"
  op: "Const"
  attr {
    key: "_class"
    value {
      list {
        s: "loc:@Discriminator.2/kernel"
      }
    }
  }
  attr {
    key: "dtype"
    value {
      type: DT_INT32
    }
  }
  attr {
    key: "value"
    value {
      tensor {
        dtype: DT_INT32
        tensor_shape {
          dim {
            size: 2
          }
        }
        tensor_content: "@\000\000\000\200\000\000\000"
      }
    }
  }
}
node {
  name: "Discriminator.2/kernel/Initializer/random_uniform/min"
  op: "Const"
  attr {
    key: "_class"
    value {
      list {
        s: "loc:@Discriminator.2/kernel"
      }
    }
  }
  attr {
    key: "dtype"
    value {
      type: DT_FLOAT
    }
  }
  attr {
    key: "value"
    value {
      tensor {
        dtype: DT_FLOAT
        tensor_shape {
        }
        float_val: -0.1767766922712326
      }
    }
  }
}
node {
  name: "Discriminator.2/kernel/Initializer/random_uniform/max"
  op: "Const"
  attr {
    key: "_class"
    value {
      list {
        s: "loc:@Discriminator.2/kernel"
      }
    }
  }
  attr {
    key: "dtype"
    value {
      type: DT_FLOAT
    }
  }
  attr {
    key: "value"
    value {
      tensor {
        dtype: DT_FLOAT
        tensor_shape {
        }
        float_val: 0.1767766922712326
      }
    }
  }
}
node {
  name: "Discriminator.2/kernel/Initializer/random_uniform/RandomUniform"
  op: "RandomUniform"
  input: "Discriminator.2/kernel/Initializer/random_uniform/shape"
  attr {
    key: "T"
    value {
      type: DT_INT32
    }
  }
  attr {
    key: "_class"
    value {
      list {
        s: "loc:@Discriminator.2/kernel"
      }
    }
  }
  attr {
    key: "dtype"
    value {
      type: DT_FLOAT
    }
  }
  attr {
    key: "seed"
    value {
      i: 0
    }
  }
  attr {
    key: "seed2"
    value {
      i: 0
    }
  }
}
node {
  name: "Discriminator.2/kernel/Initializer/random_uniform/sub"
  op: "Sub"
  input: "Discriminator.2/kernel/Initializer/random_uniform/max"
  input: "Discriminator.2/kernel/Initializer/random_uniform/min"
  attr {
    key: "T"
    value {
      type: DT_FLOAT
    }
  }
  attr {
    key: "_class"
    value {
      list {
        s: "loc:@Discriminator.2/kernel"
      }
    }
  }
}
node {
  name: "Discriminator.2/kernel/Initializer/random_uniform/mul"
  op: "Mul"
  input: "Discriminator.2/kernel/Initializer/random_uniform/RandomUniform"
  input: "Discriminator.2/kernel/Initializer/random_uniform/sub"
  attr {
    key: "T"
    value {
      type: DT_FLOAT
    }
  }
  attr {
    key: "_class"
    value {
      list {
        s: "loc:@Discriminator.2/kernel"
      }
    }
  }
}
node {
  name: "Discriminator.2/kernel/Initializer/random_uniform"
  op: "AddV2"
  input: "Discriminator.2/kernel/Initializer/random_uniform/mul"
  input: "Discriminator.2/kernel/Initializer/random_uniform/min"
  attr {
    key: "T"
    value {
      type: DT_FLOAT
    }
  }
  attr {
    key: "_class"
    value {
      list {
        s: "loc:@Discriminator.2/kernel"
      }
    }
  }
}
node {
  name: "Discriminator.2/kernel"
  op: "VarHandleOp"
  attr {
    key: "_class"
    value {
      list {
        s: "loc:@Discriminator.2/kernel"
      }
    }
  }
  attr {
    key: "allowed_devices"
    value {
      list {
      }
    }
  }
  attr {
    key: "container"
    value {
      s: ""
    }
  }
  attr {
    key: "debug_name"
    value {
      s: "Discriminator.2/kernel/"
    }
  }
  attr {
    key: "dtype"
    value {
      type: DT_FLOAT
    }
  }
  attr {
    key: "shape"
    value {
      shape {
        dim {
          size: 64
        }
        dim {
          size: 128
        }
      }
    }
  }
  attr {
    key: "shared_name"
    value {
      s: "Discriminator.2/kernel"
    }
  }
}
node {
  name: "Discriminator.2/kernel/IsInitialized/VarIsInitializedOp"
  op: "VarIsInitializedOp"
  input: "Discriminator.2/kernel"
}
node {
  name: "Discriminator.2/kernel/Assign"
  op: "AssignVariableOp"
  input: "Discriminator.2/kernel"
  input: "Discriminator.2/kernel/Initializer/random_uniform"
  attr {
    key: "_has_manual_control_dependencies"
    value {
      b: true
    }
  }
  attr {
    key: "dtype"
    value {
      type: DT_FLOAT
    }
  }
  attr {
    key: "validate_shape"
    value {
      b: false
    }
  }
}
node {
  name: "Discriminator.2/kernel/Read/ReadVariableOp"
  op: "ReadVariableOp"
  input: "Discriminator.2/kernel"
  attr {
    key: "dtype"
    value {
      type: DT_FLOAT
    }
  }
}
node {
  name: "Discriminator.2/bias/Initializer/zeros"
  op: "Const"
  attr {
    key: "_class"
    value {
      list {
        s: "loc:@Discriminator.2/bias"
      }
    }
  }
  attr {
    key: "dtype"
    value {
      type: DT_FLOAT
    }
  }
  attr {
    key: "value"
    value {
      tensor {
        dtype: DT_FLOAT
        tensor_shape {
          dim {
            size: 128
          }
        }
        float_val: 0.0
      }
    }
  }
}
node {
  name: "Discriminator.2/bias"
  op: "VarHandleOp"
  attr {
    key: "_class"
    value {
      list {
        s: "loc:@Discriminator.2/bias"
      }
    }
  }
  attr {
    key: "allowed_devices"
    value {
      list {
      }
    }
  }
  attr {
    key: "container"
    value {
      s: ""
    }
  }
  attr {
    key: "debug_name"
    value {
      s: "Discriminator.2/bias/"
    }
  }
  attr {
    key: "dtype"
    value {
      type: DT_FLOAT
    }
  }
  attr {
    key: "shape"
    value {
      shape {
        dim {
          size: 128
        }
      }
    }
  }
  attr {
    key: "shared_name"
    value {
      s: "Discriminator.2/bias"
    }
  }
}
node {
  name: "Discriminator.2/bias/IsInitialized/VarIsInitializedOp"
  op: "VarIsInitializedOp"
  input: "Discriminator.2/bias"
}
node {
  name: "Discriminator.2/bias/Assign"
  op: "AssignVariableOp"
  input: "Discriminator.2/bias"
  input: "Discriminator.2/bias/Initializer/zeros"
  attr {
    key: "_has_manual_control_dependencies"
    value {
      b: true
    }
  }
  attr {
    key: "dtype"
    value {
      type: DT_FLOAT
    }
  }
  attr {
    key: "validate_shape"
    value {
      b: false
    }
  }
}
node {
  name: "Discriminator.2/bias/Read/ReadVariableOp"
  op: "ReadVariableOp"
  input: "Discriminator.2/bias"
  attr {
    key: "dtype"
    value {
      type: DT_FLOAT
    }
  }
}
node {
  name: "Discriminator.2/MatMul/ReadVariableOp"
  op: "ReadVariableOp"
  input: "Discriminator.2/kernel"
  attr {
    key: "dtype"
    value {
      type: DT_FLOAT
    }
  }
}
node {
  name: "Discriminator.2/MatMul"
  op: "MatMul"
  input: "Discriminator.1/LeakyRelu"
  input: "Discriminator.2/MatMul/ReadVariableOp"
  attr {
    key: "T"
    value {
      type: DT_FLOAT
    }
  }
  attr {
    key: "grad_a"
    value {
      b: false
    }
  }
  attr {
    key: "grad_b"
    value {
      b: false
    }
  }
  attr {
    key: "transpose_a"
    value {
      b: false
    }
  }
  attr {
    key: "transpose_b"
    value {
      b: false
    }
  }
}
node {
  name: "Discriminator.2/add/ReadVariableOp"
  op: "ReadVariableOp"
  input: "Discriminator.2/bias"
  attr {
    key: "dtype"
    value {
      type: DT_FLOAT
    }
  }
}
node {
  name: "Discriminator.2/add"
  op: "AddV2"
  input: "Discriminator.2/MatMul"
  input: "Discriminator.2/add/ReadVariableOp"
  attr {
    key: "T"
    value {
      type: DT_FLOAT
    }
  }
}
node {
  name: "Discriminator.2/LeakyRelu"
  op: "LeakyRelu"
  input: "Discriminator.2/add"
  attr {
    key: "T"
    value {
      type: DT_FLOAT
    }
  }
  attr {
    key: "alpha"
    value {
      f: 0.20000000298023224
    }
  }
}
node {
  name: "Discriminator.3/kernel/Initializer/random_uniform/shape"
  op: "Const"
  attr {
    key: "_class"
    value {
      list {
        s: "loc:@Discriminator.3/kernel"
      }
    }
  }
  attr {
    key: "dtype"
    value {
      type: DT_INT32
    }
  }
  attr {
    key: "value"
    value {
      tensor {
        dtype: DT_INT32
        tensor_shape {
          dim {
            size: 2
          }
        }
        tensor_content: "\200\000\000\000\000\001\000\000"
      }
    }
  }
}
node {
  name: "Discriminator.3/kernel/Initializer/random_uniform/min"
  op: "Const"
  attr {
    key: "_class"
    value {
      list {
        s: "loc:@Discriminator.3/kernel"
      }
    }
  }
  attr {
    key: "dtype"
    value {
      type: DT_FLOAT
    }
  }
  attr {
    key: "value"
    value {
      tensor {
        dtype: DT_FLOAT
        tensor_shape {
        }
        float_val: -0.125
      }
    }
  }
}
node {
  name: "Discriminator.3/kernel/Initializer/random_uniform/max"
  op: "Const"
  attr {
    key: "_class"
    value {
      list {
        s: "loc:@Discriminator.3/kernel"
      }
    }
  }
  attr {
    key: "dtype"
    value {
      type: DT_FLOAT
    }
  }
  attr {
    key: "value"
    value {
      tensor {
        dtype: DT_FLOAT
        tensor_shape {
        }
        float_val: 0.125
      }
    }
  }
}
node {
  name: "Discriminator.3/kernel/Initializer/random_uniform/RandomUniform"
  op: "RandomUniform"
  input: "Discriminator.3/kernel/Initializer/random_uniform/shape"
  attr {
    key: "T"
    value {
      type: DT_INT32
    }
  }
  attr {
    key: "_class"
    value {
      list {
        s: "loc:@Discriminator.3/kernel"
      }
    }
  }
  attr {
    key: "dtype"
    value {
      type: DT_FLOAT
    }
  }
  attr {
    key: "seed"
    value {
      i: 0
    }
  }
  attr {
    key: "seed2"
    value {
      i: 0
    }
  }
}
node {
  name: "Discriminator.3/kernel/Initializer/random_uniform/sub"
  op: "Sub"
  input: "Discriminator.3/kernel/Initializer/random_uniform/max"
  input: "Discriminator.3/kernel/Initializer/random_uniform/min"
  attr {
    key: "T"
    value {
      type: DT_FLOAT
    }
  }
  attr {
    key: "_class"
    value {
      list {
        s: "loc:@Discriminator.3/kernel"
      }
    }
  }
}
node {
  name: "Discriminator.3/kernel/Initializer/random_uniform/mul"
  op: "Mul"
  input: "Discriminator.3/kernel/Initializer/random_uniform/RandomUniform"
  input: "Discriminator.3/kernel/Initializer/random_uniform/sub"
  attr {
    key: "T"
    value {
      type: DT_FLOAT
    }
  }
  attr {
    key: "_class"
    value {
      list {
        s: "loc:@Discriminator.3/kernel"
      }
    }
  }
}
node {
  name: "Discriminator.3/kernel/Initializer/random_uniform"
  op: "AddV2"
  input: "Discriminator.3/kernel/Initializer/random_uniform/mul"
  input: "Discriminator.3/kernel/Initializer/random_uniform/min"
  attr {
    key: "T"
    value {
      type: DT_FLOAT
    }
  }
  attr {
    key: "_class"
    value {
      list {
        s: "loc:@Discriminator.3/kernel"
      }
    }
  }
}
node {
  name: "Discriminator.3/kernel"
  op: "VarHandleOp"
  attr {
    key: "_class"
    value {
      list {
        s: "loc:@Discriminator.3/kernel"
      }
    }
  }
  attr {
    key: "allowed_devices"
    value {
      list {
      }
    }
  }
  attr {
    key: "container"
    value {
      s: ""
    }
  }
  attr {
    key: "debug_name"
    value {
      s: "Discriminator.3/kernel/"
    }
  }
  attr {
    key: "dtype"
    value {
      type: DT_FLOAT
    }
  }
  attr {
    key: "shape"
    value {
      shape {
        dim {
          size: 128
        }
        dim {
          size: 256
        }
      }
    }
  }
  attr {
    key: "shared_name"
    value {
      s: "Discriminator.3/kernel"
    }
  }
}
node {
  name: "Discriminator.3/kernel/IsInitialized/VarIsInitializedOp"
  op: "VarIsInitializedOp"
  input: "Discriminator.3/kernel"
}
node {
  name: "Discriminator.3/kernel/Assign"
  op: "AssignVariableOp"
  input: "Discriminator.3/kernel"
  input: "Discriminator.3/kernel/Initializer/random_uniform"
  attr {
    key: "_has_manual_control_dependencies"
    value {
      b: true
    }
  }
  attr {
    key: "dtype"
    value {
      type: DT_FLOAT
    }
  }
  attr {
    key: "validate_shape"
    value {
      b: false
    }
  }
}
node {
  name: "Discriminator.3/kernel/Read/ReadVariableOp"
  op: "ReadVariableOp"
  input: "Discriminator.3/kernel"
  attr {
    key: "dtype"
    value {
      type: DT_FLOAT
    }
  }
}
node {
  name: "Discriminator.3/bias/Initializer/zeros"
  op: "Const"
  attr {
    key: "_class"
    value {
      list {
        s: "loc:@Discriminator.3/bias"
      }
    }
  }
  attr {
    key: "dtype"
    value {
      type: DT_FLOAT
    }
  }
  attr {
    key: "value"
    value {
      tensor {
        dtype: DT_FLOAT
        tensor_shape {
          dim {
            size: 256
          }
        }
        float_val: 0.0
      }
    }
  }
}
node {
  name: "Discriminator.3/bias"
  op: "VarHandleOp"
  attr {
    key: "_class"
    value {
      list {
        s: "loc:@Discriminator.3/bias"
      }
    }
  }
  attr {
    key: "allowed_devices"
    value {
      list {
      }
    }
  }
  attr {
    key: "container"
    value {
      s: ""
    }
  }
  attr {
    key: "debug_name"
    value {
      s: "Discriminator.3/bias/"
    }
  }
  attr {
    key: "dtype"
    value {
      type: DT_FLOAT
    }
  }
  attr {
    key: "shape"
    value {
      shape {
        dim {
          size: 256
        }
      }
    }
  }
  attr {
    key: "shared_name"
    value {
      s: "Discriminator.3/bias"
    }
  }
}
node {
  name: "Discriminator.3/bias/IsInitialized/VarIsInitializedOp"
  op: "VarIsInitializedOp"
  input: "Discriminator.3/bias"
}
node {
  name: "Discriminator.3/bias/Assign"
  op: "AssignVariableOp"
  input: "Discriminator.3/bias"
  input: "Discriminator.3/bias/Initializer/zeros"
  attr {
    key: "_has_manual_control_dependencies"
    value {
      b: true
    }
  }
  attr {
    key: "dtype"
    value {
      type: DT_FLOAT
    }
  }
  attr {
    key: "validate_shape"
    value {
      b: false
    }
  }
}
node {
  name: "Discriminator.3/bias/Read/ReadVariableOp"
  op: "ReadVariableOp"
  input: "Discriminator.3/bias"
  attr {
    key: "dtype"
    value {
      type: DT_FLOAT
    }
  }
}
node {
  name: "Discriminator.3/MatMul/ReadVariableOp"
  op: "ReadVariableOp"
  input: "Discriminator.3/kernel"
  attr {
    key: "dtype"
    value {
      type: DT_FLOAT
    }
  }
}
node {
  name: "Discriminator.3/MatMul"
  op: "MatMul"
  input: "Discriminator.2/LeakyRelu"
  input: "Discriminator.3/MatMul/ReadVariableOp"
  attr {
    key: "T"
    value {
      type: DT_FLOAT
    }
  }
  attr {
    key: "grad_a"
    value {
      b: false
    }
  }
  attr {
    key: "grad_b"
    value {
      b: false
    }
  }
  attr {
    key: "transpose_a"
    value {
      b: false
    }
  }
  attr {
    key: "transpose_b"
    value {
      b: false
    }
  }
}
node {
  name: "Discriminator.3/add/ReadVariableOp"
  op: "ReadVariableOp"
  input: "Discriminator.3/bias"
  attr {
    key: "dtype"
    value {
      type: DT_FLOAT
    }
  }
}
node {
  name: "Discriminator.3/add"
  op: "AddV2"
  input: "Discriminator.3/MatMul"
  input: "Discriminator.3/add/ReadVariableOp"
  attr {
    key: "T"
    value {
      type: DT_FLOAT
    }
  }
}
node {
  name: "Discriminator.3/LeakyRelu"
  op: "LeakyRelu"
  input: "Discriminator.3/add"
  attr {
    key: "T"
    value {
      type: DT_FLOAT
    }
  }
  attr {
    key: "alpha"
    value {
      f: 0.20000000298023224
    }
  }
}
node {
  name: "Discriminator.4/kernel/Initializer/random_uniform/shape"
  op: "Const"
  attr {
    key: "_class"
    value {
      list {
        s: "loc:@Discriminator.4/kernel"
      }
    }
  }
  attr {
    key: "dtype"
    value {
      type: DT_INT32
    }
  }
  attr {
    key: "value"
    value {
      tensor {
        dtype: DT_INT32
        tensor_shape {
          dim {
            size: 2
          }
        }
        tensor_content: "\000\001\000\000\001\000\000\000"
      }
    }
  }
}
node {
  name: "Discriminator.4/kernel/Initializer/random_uniform/min"
  op: "Const"
  attr {
    key: "_class"
    value {
      list {
        s: "loc:@Discriminator.4/kernel"
      }
    }
  }
  attr {
    key: "dtype"
    value {
      type: DT_FLOAT
    }
  }
  attr {
    key: "value"
    value {
      tensor {
        dtype: DT_FLOAT
        tensor_shape {
        }
        float_val: -0.1527949720621109
      }
    }
  }
}
node {
  name: "Discriminator.4/kernel/Initializer/random_uniform/max"
  op: "Const"
  attr {
    key: "_class"
    value {
      list {
        s: "loc:@Discriminator.4/kernel"
      }
    }
  }
  attr {
    key: "dtype"
    value {
      type: DT_FLOAT
    }
  }
  attr {
    key: "value"
    value {
      tensor {
        dtype: DT_FLOAT
        tensor_shape {
        }
        float_val: 0.1527949720621109
      }
    }
  }
}
node {
  name: "Discriminator.4/kernel/Initializer/random_uniform/RandomUniform"
  op: "RandomUniform"
  input: "Discriminator.4/kernel/Initializer/random_uniform/shape"
  attr {
    key: "T"
    value {
      type: DT_INT32
    }
  }
  attr {
    key: "_class"
    value {
      list {
        s: "loc:@Discriminator.4/kernel"
      }
    }
  }
  attr {
    key: "dtype"
    value {
      type: DT_FLOAT
    }
  }
  attr {
    key: "seed"
    value {
      i: 0
    }
  }
  attr {
    key: "seed2"
    value {
      i: 0
    }
  }
}
node {
  name: "Discriminator.4/kernel/Initializer/random_uniform/sub"
  op: "Sub"
  input: "Discriminator.4/kernel/Initializer/random_uniform/max"
  input: "Discriminator.4/kernel/Initializer/random_uniform/min"
  attr {
    key: "T"
    value {
      type: DT_FLOAT
    }
  }
  attr {
    key: "_class"
    value {
      list {
        s: "loc:@Discriminator.4/kernel"
      }
    }
  }
}
node {
  name: "Discriminator.4/kernel/Initializer/random_uniform/mul"
  op: "Mul"
  input: "Discriminator.4/kernel/Initializer/random_uniform/RandomUniform"
  input: "Discriminator.4/kernel/Initializer/random_uniform/sub"
  attr {
    key: "T"
    value {
      type: DT_FLOAT
    }
  }
  attr {
    key: "_class"
    value {
      list {
        s: "loc:@Discriminator.4/kernel"
      }
    }
  }
}
node {
  name: "Discriminator.4/kernel/Initializer/random_uniform"
  op: "AddV2"
  input: "Discriminator.4/kernel/Initializer/random_uniform/mul"
  input: "Discriminator.4/kernel/Initializer/random_uniform/min"
  attr {
    key: "T"
    value {
      type: DT_FLOAT
    }
  }
  attr {
    key: "_class"
    value {
      list {
        s: "loc:@Discriminator.4/kernel"
      }
    }
  }
}
node {
  name: "Discriminator.4/kernel"
  op: "VarHandleOp"
  attr {
    key: "_class"
    value {
      list {
        s: "loc:@Discriminator.4/kernel"
      }
    }
  }
  attr {
    key: "allowed_devices"
    value {
      list {
      }
    }
  }
  attr {
    key: "container"
    value {
      s: ""
    }
  }
  attr {
    key: "debug_name"
    value {
      s: "Discriminator.4/kernel/"
    }
  }
  attr {
    key: "dtype"
    value {
      type: DT_FLOAT
    }
  }
  attr {
    key: "shape"
    value {
      shape {
        dim {
          size: 256
        }
        dim {
          size: 1
        }
      }
    }
  }
  attr {
    key: "shared_name"
    value {
      s: "Discriminator.4/kernel"
    }
  }
}
node {
  name: "Discriminator.4/kernel/IsInitialized/VarIsInitializedOp"
  op: "VarIsInitializedOp"
  input: "Discriminator.4/kernel"
}
node {
  name: "Discriminator.4/kernel/Assign"
  op: "AssignVariableOp"
  input: "Discriminator.4/kernel"
  input: "Discriminator.4/kernel/Initializer/random_uniform"
  attr {
    key: "_has_manual_control_dependencies"
    value {
      b: true
    }
  }
  attr {
    key: "dtype"
    value {
      type: DT_FLOAT
    }
  }
  attr {
    key: "validate_shape"
    value {
      b: false
    }
  }
}
node {
  name: "Discriminator.4/kernel/Read/ReadVariableOp"
  op: "ReadVariableOp"
  input: "Discriminator.4/kernel"
  attr {
    key: "dtype"
    value {
      type: DT_FLOAT
    }
  }
}
node {
  name: "Discriminator.4/bias/Initializer/zeros"
  op: "Const"
  attr {
    key: "_class"
    value {
      list {
        s: "loc:@Discriminator.4/bias"
      }
    }
  }
  attr {
    key: "dtype"
    value {
      type: DT_FLOAT
    }
  }
  attr {
    key: "value"
    value {
      tensor {
        dtype: DT_FLOAT
        tensor_shape {
          dim {
            size: 1
          }
        }
        float_val: 0.0
      }
    }
  }
}
node {
  name: "Discriminator.4/bias"
  op: "VarHandleOp"
  attr {
    key: "_class"
    value {
      list {
        s: "loc:@Discriminator.4/bias"
      }
    }
  }
  attr {
    key: "allowed_devices"
    value {
      list {
      }
    }
  }
  attr {
    key: "container"
    value {
      s: ""
    }
  }
  attr {
    key: "debug_name"
    value {
      s: "Discriminator.4/bias/"
    }
  }
  attr {
    key: "dtype"
    value {
      type: DT_FLOAT
    }
  }
  attr {
    key: "shape"
    value {
      shape {
        dim {
          size: 1
        }
      }
    }
  }
  attr {
    key: "shared_name"
    value {
      s: "Discriminator.4/bias"
    }
  }
}
node {
  name: "Discriminator.4/bias/IsInitialized/VarIsInitializedOp"
  op: "VarIsInitializedOp"
  input: "Discriminator.4/bias"
}
node {
  name: "Discriminator.4/bias/Assign"
  op: "AssignVariableOp"
  input: "Discriminator.4/bias"
  input: "Discriminator.4/bias/Initializer/zeros"
  attr {
    key: "_has_manual_control_dependencies"
    value {
      b: true
    }
  }
  attr {
    key: "dtype"
    value {
      type: DT_FLOAT
    }
  }
  attr {
    key: "validate_shape"
    value {
      b: false
    }
  }
}
node {
  name: "Discriminator.4/bias/Read/ReadVariableOp"
  op: "ReadVariableOp"
  input: "Discriminator.4/bias"
  attr {
    key: "dtype"
    value {
      type: DT_FLOAT
    }
  }
}
node {
  name: "Discriminator.4/MatMul/ReadVariableOp"
  op: "ReadVariableOp"
  input: "Discriminator.4/kernel"
  attr {
    key: "dtype"
    value {
      type: DT_FLOAT
    }
  }
}
node {
  name: "Discriminator.4/MatMul"
  op: "MatMul"
  input: "Discriminator.3/LeakyRelu"
  input: "Discriminator.4/MatMul/ReadVariableOp"
  attr {
    key: "T"
    value {
      type: DT_FLOAT
    }
  }
  attr {
    key: "grad_a"
    value {
      b: false
    }
  }
  attr {
    key: "grad_b"
    value {
      b: false
    }
  }
  attr {
    key: "transpose_a"
    value {
      b: false
    }
  }
  attr {
    key: "transpose_b"
    value {
      b: false
    }
  }
}
node {
  name: "Discriminator.4/add/ReadVariableOp"
  op: "ReadVariableOp"
  input: "Discriminator.4/bias"
  attr {
    key: "dtype"
    value {
      type: DT_FLOAT
    }
  }
}
node {
  name: "Discriminator.4/add"
  op: "AddV2"
  input: "Discriminator.4/MatMul"
  input: "Discriminator.4/add/ReadVariableOp"
  attr {
    key: "T"
    value {
      type: DT_FLOAT
    }
  }
}
node {
  name: "Discriminator.1_1/MatMul/ReadVariableOp"
  op: "ReadVariableOp"
  input: "Discriminator.1/kernel"
  attr {
    key: "dtype"
    value {
      type: DT_FLOAT
    }
  }
}
node {
  name: "Discriminator.1_1/MatMul"
  op: "MatMul"
  input: "Generator.3/Sigmoid"
  input: "Discriminator.1_1/MatMul/ReadVariableOp"
  attr {
    key: "T"
    value {
      type: DT_FLOAT
    }
  }
  attr {
    key: "grad_a"
    value {
      b: false
    }
  }
  attr {
    key: "grad_b"
    value {
      b: false
    }
  }
  attr {
    key: "transpose_a"
    value {
      b: false
    }
  }
  attr {
    key: "transpose_b"
    value {
      b: false
    }
  }
}
node {
  name: "Discriminator.1_1/add/ReadVariableOp"
  op: "ReadVariableOp"
  input: "Discriminator.1/bias"
  attr {
    key: "dtype"
    value {
      type: DT_FLOAT
    }
  }
}
node {
  name: "Discriminator.1_1/add"
  op: "AddV2"
  input: "Discriminator.1_1/MatMul"
  input: "Discriminator.1_1/add/ReadVariableOp"
  attr {
    key: "T"
    value {
      type: DT_FLOAT
    }
  }
}
node {
  name: "Discriminator.1_1/LeakyRelu"
  op: "LeakyRelu"
  input: "Discriminator.1_1/add"
  attr {
    key: "T"
    value {
      type: DT_FLOAT
    }
  }
  attr {
    key: "alpha"
    value {
      f: 0.20000000298023224
    }
  }
}
node {
  name: "Discriminator.2_1/MatMul/ReadVariableOp"
  op: "ReadVariableOp"
  input: "Discriminator.2/kernel"
  attr {
    key: "dtype"
    value {
      type: DT_FLOAT
    }
  }
}
node {
  name: "Discriminator.2_1/MatMul"
  op: "MatMul"
  input: "Discriminator.1_1/LeakyRelu"
  input: "Discriminator.2_1/MatMul/ReadVariableOp"
  attr {
    key: "T"
    value {
      type: DT_FLOAT
    }
  }
  attr {
    key: "grad_a"
    value {
      b: false
    }
  }
  attr {
    key: "grad_b"
    value {
      b: false
    }
  }
  attr {
    key: "transpose_a"
    value {
      b: false
    }
  }
  attr {
    key: "transpose_b"
    value {
      b: false
    }
  }
}
node {
  name: "Discriminator.2_1/add/ReadVariableOp"
  op: "ReadVariableOp"
  input: "Discriminator.2/bias"
  attr {
    key: "dtype"
    value {
      type: DT_FLOAT
    }
  }
}
node {
  name: "Discriminator.2_1/add"
  op: "AddV2"
  input: "Discriminator.2_1/MatMul"
  input: "Discriminator.2_1/add/ReadVariableOp"
  attr {
    key: "T"
    value {
      type: DT_FLOAT
    }
  }
}
node {
  name: "Discriminator.2_1/LeakyRelu"
  op: "LeakyRelu"
  input: "Discriminator.2_1/add"
  attr {
    key: "T"
    value {
      type: DT_FLOAT
    }
  }
  attr {
    key: "alpha"
    value {
      f: 0.20000000298023224
    }
  }
}
node {
  name: "Discriminator.3_1/MatMul/ReadVariableOp"
  op: "ReadVariableOp"
  input: "Discriminator.3/kernel"
  attr {
    key: "dtype"
    value {
      type: DT_FLOAT
    }
  }
}
node {
  name: "Discriminator.3_1/MatMul"
  op: "MatMul"
  input: "Discriminator.2_1/LeakyRelu"
  input: "Discriminator.3_1/MatMul/ReadVariableOp"
  attr {
    key: "T"
    value {
      type: DT_FLOAT
    }
  }
  attr {
    key: "grad_a"
    value {
      b: false
    }
  }
  attr {
    key: "grad_b"
    value {
      b: false
    }
  }
  attr {
    key: "transpose_a"
    value {
      b: false
    }
  }
  attr {
    key: "transpose_b"
    value {
      b: false
    }
  }
}
node {
  name: "Discriminator.3_1/add/ReadVariableOp"
  op: "ReadVariableOp"
  input: "Discriminator.3/bias"
  attr {
    key: "dtype"
    value {
      type: DT_FLOAT
    }
  }
}
node {
  name: "Discriminator.3_1/add"
  op: "AddV2"
  input: "Discriminator.3_1/MatMul"
  input: "Discriminator.3_1/add/ReadVariableOp"
  attr {
    key: "T"
    value {
      type: DT_FLOAT
    }
  }
}
node {
  name: "Discriminator.3_1/LeakyRelu"
  op: "LeakyRelu"
  input: "Discriminator.3_1/add"
  attr {
    key: "T"
    value {
      type: DT_FLOAT
    }
  }
  attr {
    key: "alpha"
    value {
      f: 0.20000000298023224
    }
  }
}
node {
  name: "Discriminator.4_1/MatMul/ReadVariableOp"
  op: "ReadVariableOp"
  input: "Discriminator.4/kernel"
  attr {
    key: "dtype"
    value {
      type: DT_FLOAT
    }
  }
}
node {
  name: "Discriminator.4_1/MatMul"
  op: "MatMul"
  input: "Discriminator.3_1/LeakyRelu"
  input: "Discriminator.4_1/MatMul/ReadVariableOp"
  attr {
    key: "T"
    value {
      type: DT_FLOAT
    }
  }
  attr {
    key: "grad_a"
    value {
      b: false
    }
  }
  attr {
    key: "grad_b"
    value {
      b: false
    }
  }
  attr {
    key: "transpose_a"
    value {
      b: false
    }
  }
  attr {
    key: "transpose_b"
    value {
      b: false
    }
  }
}
node {
  name: "Discriminator.4_1/add/ReadVariableOp"
  op: "ReadVariableOp"
  input: "Discriminator.4/bias"
  attr {
    key: "dtype"
    value {
      type: DT_FLOAT
    }
  }
}
node {
  name: "Discriminator.4_1/add"
  op: "AddV2"
  input: "Discriminator.4_1/MatMul"
  input: "Discriminator.4_1/add/ReadVariableOp"
  attr {
    key: "T"
    value {
      type: DT_FLOAT
    }
  }
}
node {
  name: "Const"
  op: "Const"
  attr {
    key: "dtype"
    value {
      type: DT_INT32
    }
  }
  attr {
    key: "value"
    value {
      tensor {
        dtype: DT_INT32
        tensor_shape {
          dim {
            size: 2
          }
        }
        tensor_content: "\000\000\000\000\001\000\000\000"
      }
    }
  }
}
node {
  name: "Mean"
  op: "Mean"
  input: "Discriminator.4_1/add"
  input: "Const"
  attr {
    key: "T"
    value {
      type: DT_FLOAT
    }
  }
  attr {
    key: "Tidx"
    value {
      type: DT_INT32
    }
  }
  attr {
    key: "keep_dims"
    value {
      b: false
    }
  }
}
node {
  name: "Neg"
  op: "Neg"
  input: "Mean"
  attr {
    key: "T"
    value {
      type: DT_FLOAT
    }
  }
}
node {
  name: "Const_1"
  op: "Const"
  attr {
    key: "dtype"
    value {
      type: DT_INT32
    }
  }
  attr {
    key: "value"
    value {
      tensor {
        dtype: DT_INT32
        tensor_shape {
          dim {
            size: 2
          }
        }
        tensor_content: "\000\000\000\000\001\000\000\000"
      }
    }
  }
}
node {
  name: "Mean_1"
  op: "Mean"
  input: "Discriminator.4_1/add"
  input: "Const_1"
  attr {
    key: "T"
    value {
      type: DT_FLOAT
    }
  }
  attr {
    key: "Tidx"
    value {
      type: DT_INT32
    }
  }
  attr {
    key: "keep_dims"
    value {
      b: false
    }
  }
}
node {
  name: "Const_2"
  op: "Const"
  attr {
    key: "dtype"
    value {
      type: DT_INT32
    }
  }
  attr {
    key: "value"
    value {
      tensor {
        dtype: DT_INT32
        tensor_shape {
          dim {
            size: 2
          }
        }
        tensor_content: "\000\000\000\000\001\000\000\000"
      }
    }
  }
}
node {
  name: "Mean_2"
  op: "Mean"
  input: "Discriminator.4/add"
  input: "Const_2"
  attr {
    key: "T"
    value {
      type: DT_FLOAT
    }
  }
  attr {
    key: "Tidx"
    value {
      type: DT_INT32
    }
  }
  attr {
    key: "keep_dims"
    value {
      b: false
    }
  }
}
node {
  name: "sub"
  op: "Sub"
  input: "Mean_1"
  input: "Mean_2"
  attr {
    key: "T"
    value {
      type: DT_FLOAT
    }
  }
}
node {
  name: "random_uniform/shape"
  op: "Const"
  attr {
    key: "dtype"
    value {
      type: DT_INT32
    }
  }
  attr {
    key: "value"
    value {
      tensor {
        dtype: DT_INT32
        tensor_shape {
          dim {
            size: 2
          }
        }
        tensor_content: "\220\001\000\000\001\000\000\000"
      }
    }
  }
}
node {
  name: "random_uniform/RandomUniform"
  op: "RandomUniform"
  input: "random_uniform/shape"
  attr {
    key: "T"
    value {
      type: DT_INT32
    }
  }
  attr {
    key: "dtype"
    value {
      type: DT_FLOAT
    }
  }
  attr {
    key: "seed"
    value {
      i: 0
    }
  }
  attr {
    key: "seed2"
    value {
      i: 0
    }
  }
}
node {
  name: "mul"
  op: "Mul"
  input: "random_uniform/RandomUniform"
  input: "RealData"
  attr {
    key: "T"
    value {
      type: DT_FLOAT
    }
  }
}
node {
  name: "sub_1/x"
  op: "Const"
  attr {
    key: "dtype"
    value {
      type: DT_FLOAT
    }
  }
  attr {
    key: "value"
    value {
      tensor {
        dtype: DT_FLOAT
        tensor_shape {
        }
        float_val: 1.0
      }
    }
  }
}
node {
  name: "sub_1"
  op: "Sub"
  input: "sub_1/x"
  input: "random_uniform/RandomUniform"
  attr {
    key: "T"
    value {
      type: DT_FLOAT
    }
  }
}
node {
  name: "mul_1"
  op: "Mul"
  input: "sub_1"
  input: "Generator.3/Sigmoid"
  attr {
    key: "T"
    value {
      type: DT_FLOAT
    }
  }
}
node {
  name: "add"
  op: "AddV2"
  input: "mul"
  input: "mul_1"
  attr {
    key: "T"
    value {
      type: DT_FLOAT
    }
  }
}
node {
  name: "Discriminator.1_2/MatMul/ReadVariableOp"
  op: "ReadVariableOp"
  input: "Discriminator.1/kernel"
  attr {
    key: "dtype"
    value {
      type: DT_FLOAT
    }
  }
}
node {
  name: "Discriminator.1_2/MatMul"
  op: "MatMul"
  input: "add"
  input: "Discriminator.1_2/MatMul/ReadVariableOp"
  attr {
    key: "T"
    value {
      type: DT_FLOAT
    }
  }
  attr {
    key: "grad_a"
    value {
      b: false
    }
  }
  attr {
    key: "grad_b"
    value {
      b: false
    }
  }
  attr {
    key: "transpose_a"
    value {
      b: false
    }
  }
  attr {
    key: "transpose_b"
    value {
      b: false
    }
  }
}
node {
  name: "Discriminator.1_2/add/ReadVariableOp"
  op: "ReadVariableOp"
  input: "Discriminator.1/bias"
  attr {
    key: "dtype"
    value {
      type: DT_FLOAT
    }
  }
}
node {
  name: "Discriminator.1_2/add"
  op: "AddV2"
  input: "Discriminator.1_2/MatMul"
  input: "Discriminator.1_2/add/ReadVariableOp"
  attr {
    key: "T"
    value {
      type: DT_FLOAT
    }
  }
}
node {
  name: "Discriminator.1_2/LeakyRelu"
  op: "LeakyRelu"
  input: "Discriminator.1_2/add"
  attr {
    key: "T"
    value {
      type: DT_FLOAT
    }
  }
  attr {
    key: "alpha"
    value {
      f: 0.20000000298023224
    }
  }
}
node {
  name: "Discriminator.2_2/MatMul/ReadVariableOp"
  op: "ReadVariableOp"
  input: "Discriminator.2/kernel"
  attr {
    key: "dtype"
    value {
      type: DT_FLOAT
    }
  }
}
node {
  name: "Discriminator.2_2/MatMul"
  op: "MatMul"
  input: "Discriminator.1_2/LeakyRelu"
  input: "Discriminator.2_2/MatMul/ReadVariableOp"
  attr {
    key: "T"
    value {
      type: DT_FLOAT
    }
  }
  attr {
    key: "grad_a"
    value {
      b: false
    }
  }
  attr {
    key: "grad_b"
    value {
      b: false
    }
  }
  attr {
    key: "transpose_a"
    value {
      b: false
    }
  }
  attr {
    key: "transpose_b"
    value {
      b: false
    }
  }
}
node {
  name: "Discriminator.2_2/add/ReadVariableOp"
  op: "ReadVariableOp"
  input: "Discriminator.2/bias"
  attr {
    key: "dtype"
    value {
      type: DT_FLOAT
    }
  }
}
node {
  name: "Discriminator.2_2/add"
  op: "AddV2"
  input: "Discriminator.2_2/MatMul"
  input: "Discriminator.2_2/add/ReadVariableOp"
  attr {
    key: "T"
    value {
      type: DT_FLOAT
    }
  }
}
node {
  name: "Discriminator.2_2/LeakyRelu"
  op: "LeakyRelu"
  input: "Discriminator.2_2/add"
  attr {
    key: "T"
    value {
      type: DT_FLOAT
    }
  }
  attr {
    key: "alpha"
    value {
      f: 0.20000000298023224
    }
  }
}
node {
  name: "Discriminator.3_2/MatMul/ReadVariableOp"
  op: "ReadVariableOp"
  input: "Discriminator.3/kernel"
  attr {
    key: "dtype"
    value {
      type: DT_FLOAT
    }
  }
}
node {
  name: "Discriminator.3_2/MatMul"
  op: "MatMul"
  input: "Discriminator.2_2/LeakyRelu"
  input: "Discriminator.3_2/MatMul/ReadVariableOp"
  attr {
    key: "T"
    value {
      type: DT_FLOAT
    }
  }
  attr {
    key: "grad_a"
    value {
      b: false
    }
  }
  attr {
    key: "grad_b"
    value {
      b: false
    }
  }
  attr {
    key: "transpose_a"
    value {
      b: false
    }
  }
  attr {
    key: "transpose_b"
    value {
      b: false
    }
  }
}
node {
  name: "Discriminator.3_2/add/ReadVariableOp"
  op: "ReadVariableOp"
  input: "Discriminator.3/bias"
  attr {
    key: "dtype"
    value {
      type: DT_FLOAT
    }
  }
}
node {
  name: "Discriminator.3_2/add"
  op: "AddV2"
  input: "Discriminator.3_2/MatMul"
  input: "Discriminator.3_2/add/ReadVariableOp"
  attr {
    key: "T"
    value {
      type: DT_FLOAT
    }
  }
}
node {
  name: "Discriminator.3_2/LeakyRelu"
  op: "LeakyRelu"
  input: "Discriminator.3_2/add"
  attr {
    key: "T"
    value {
      type: DT_FLOAT
    }
  }
  attr {
    key: "alpha"
    value {
      f: 0.20000000298023224
    }
  }
}
node {
  name: "Discriminator.4_2/MatMul/ReadVariableOp"
  op: "ReadVariableOp"
  input: "Discriminator.4/kernel"
  attr {
    key: "dtype"
    value {
      type: DT_FLOAT
    }
  }
}
node {
  name: "Discriminator.4_2/MatMul"
  op: "MatMul"
  input: "Discriminator.3_2/LeakyRelu"
  input: "Discriminator.4_2/MatMul/ReadVariableOp"
  attr {
    key: "T"
    value {
      type: DT_FLOAT
    }
  }
  attr {
    key: "grad_a"
    value {
      b: false
    }
  }
  attr {
    key: "grad_b"
    value {
      b: false
    }
  }
  attr {
    key: "transpose_a"
    value {
      b: false
    }
  }
  attr {
    key: "transpose_b"
    value {
      b: false
    }
  }
}
node {
  name: "Discriminator.4_2/add/ReadVariableOp"
  op: "ReadVariableOp"
  input: "Discriminator.4/bias"
  attr {
    key: "dtype"
    value {
      type: DT_FLOAT
    }
  }
}
node {
  name: "Discriminator.4_2/add"
  op: "AddV2"
  input: "Discriminator.4_2/MatMul"
  input: "Discriminator.4_2/add/ReadVariableOp"
  attr {
    key: "T"
    value {
      type: DT_FLOAT
    }
  }
}
node {
  name: "gradients/Shape"
  op: "Const"
  attr {
    key: "dtype"
    value {
      type: DT_INT32
    }
  }
  attr {
    key: "value"
    value {
      tensor {
        dtype: DT_INT32
        tensor_shape {
          dim {
            size: 2
          }
        }
        tensor_content: "\220\001\000\000\001\000\000\000"
      }
    }
  }
}
node {
  name: "gradients/grad_ys_0/Const"
  op: "Const"
  attr {
    key: "dtype"
    value {
      type: DT_FLOAT
    }
  }
  attr {
    key: "value"
    value {
      tensor {
        dtype: DT_FLOAT
        tensor_shape {
        }
        float_val: 1.0
      }
    }
  }
}
node {
  name: "gradients/grad_ys_0"
  op: "Fill"
  input: "gradients/Shape"
  input: "gradients/grad_ys_0/Const"
  attr {
    key: "T"
    value {
      type: DT_FLOAT
    }
  }
  attr {
    key: "index_type"
    value {
      type: DT_INT32
    }
  }
}
node {
  name: "gradients/Discriminator.4_2/add_grad/Shape"
  op: "Const"
  attr {
    key: "dtype"
    value {
      type: DT_INT32
    }
  }
  attr {
    key: "value"
    value {
      tensor {
        dtype: DT_INT32
        tensor_shape {
          dim {
            size: 2
          }
        }
        tensor_content: "\220\001\000\000\001\000\000\000"
      }
    }
  }
}
node {
  name: "gradients/Discriminator.4_2/add_grad/Shape_1"
  op: "Const"
  attr {
    key: "dtype"
    value {
      type: DT_INT32
    }
  }
  attr {
    key: "value"
    value {
      tensor {
        dtype: DT_INT32
        tensor_shape {
          dim {
            size: 1
          }
        }
        int_val: 1
      }
    }
  }
}
node {
  name: "gradients/Discriminator.4_2/add_grad/Sum/reduction_indices"
  op: "Const"
  attr {
    key: "dtype"
    value {
      type: DT_INT32
    }
  }
  attr {
    key: "value"
    value {
      tensor {
        dtype: DT_INT32
        tensor_shape {
          dim {
            size: 1
          }
        }
        int_val: 0
      }
    }
  }
}
node {
  name: "gradients/Discriminator.4_2/add_grad/Sum"
  op: "Sum"
  input: "gradients/grad_ys_0"
  input: "gradients/Discriminator.4_2/add_grad/Sum/reduction_indices"
  attr {
    key: "T"
    value {
      type: DT_FLOAT
    }
  }
  attr {
    key: "Tidx"
    value {
      type: DT_INT32
    }
  }
  attr {
    key: "keep_dims"
    value {
      b: true
    }
  }
}
node {
  name: "gradients/Discriminator.4_2/add_grad/Reshape"
  op: "Reshape"
  input: "gradients/Discriminator.4_2/add_grad/Sum"
  input: "gradients/Discriminator.4_2/add_grad/Shape_1"
  attr {
    key: "T"
    value {
      type: DT_FLOAT
    }
  }
  attr {
    key: "Tshape"
    value {
      type: DT_INT32
    }
  }
}
node {
  name: "gradients/Discriminator.4_2/MatMul_grad/MatMul"
  op: "MatMul"
  input: "gradients/grad_ys_0"
  input: "Discriminator.4_2/MatMul/ReadVariableOp"
  attr {
    key: "T"
    value {
      type: DT_FLOAT
    }
  }
  attr {
    key: "grad_a"
    value {
      b: true
    }
  }
  attr {
    key: "grad_b"
    value {
      b: false
    }
  }
  attr {
    key: "transpose_a"
    value {
      b: false
    }
  }
  attr {
    key: "transpose_b"
    value {
      b: true
    }
  }
}
node {
  name: "gradients/Discriminator.4_2/MatMul_grad/MatMul_1"
  op: "MatMul"
  input: "Discriminator.3_2/LeakyRelu"
  input: "gradients/grad_ys_0"
  attr {
    key: "T"
    value {
      type: DT_FLOAT
    }
  }
  attr {
    key: "grad_a"
    value {
      b: false
    }
  }
  attr {
    key: "grad_b"
    value {
      b: true
    }
  }
  attr {
    key: "transpose_a"
    value {
      b: true
    }
  }
  attr {
    key: "transpose_b"
    value {
      b: false
    }
  }
}
node {
  name: "gradients/Discriminator.3_2/LeakyRelu_grad/LeakyReluGrad"
  op: "LeakyReluGrad"
  input: "gradients/Discriminator.4_2/MatMul_grad/MatMul"
  input: "Discriminator.3_2/add"
  attr {
    key: "T"
    value {
      type: DT_FLOAT
    }
  }
  attr {
    key: "alpha"
    value {
      f: 0.20000000298023224
    }
  }
}
node {
  name: "gradients/Discriminator.3_2/add_grad/Shape"
  op: "Const"
  attr {
    key: "dtype"
    value {
      type: DT_INT32
    }
  }
  attr {
    key: "value"
    value {
      tensor {
        dtype: DT_INT32
        tensor_shape {
          dim {
            size: 2
          }
        }
        tensor_content: "\220\001\000\000\000\001\000\000"
      }
    }
  }
}
node {
  name: "gradients/Discriminator.3_2/add_grad/Shape_1"
  op: "Const"
  attr {
    key: "dtype"
    value {
      type: DT_INT32
    }
  }
  attr {
    key: "value"
    value {
      tensor {
        dtype: DT_INT32
        tensor_shape {
          dim {
            size: 1
          }
        }
        int_val: 256
      }
    }
  }
}
node {
  name: "gradients/Discriminator.3_2/add_grad/Sum/reduction_indices"
  op: "Const"
  attr {
    key: "dtype"
    value {
      type: DT_INT32
    }
  }
  attr {
    key: "value"
    value {
      tensor {
        dtype: DT_INT32
        tensor_shape {
          dim {
            size: 1
          }
        }
        int_val: 0
      }
    }
  }
}
node {
  name: "gradients/Discriminator.3_2/add_grad/Sum"
  op: "Sum"
  input: "gradients/Discriminator.3_2/LeakyRelu_grad/LeakyReluGrad"
  input: "gradients/Discriminator.3_2/add_grad/Sum/reduction_indices"
  attr {
    key: "T"
    value {
      type: DT_FLOAT
    }
  }
  attr {
    key: "Tidx"
    value {
      type: DT_INT32
    }
  }
  attr {
    key: "keep_dims"
    value {
      b: true
    }
  }
}
node {
  name: "gradients/Discriminator.3_2/add_grad/Reshape"
  op: "Reshape"
  input: "gradients/Discriminator.3_2/add_grad/Sum"
  input: "gradients/Discriminator.3_2/add_grad/Shape_1"
  attr {
    key: "T"
    value {
      type: DT_FLOAT
    }
  }
  attr {
    key: "Tshape"
    value {
      type: DT_INT32
    }
  }
}
node {
  name: "gradients/Discriminator.3_2/MatMul_grad/MatMul"
  op: "MatMul"
  input: "gradients/Discriminator.3_2/LeakyRelu_grad/LeakyReluGrad"
  input: "Discriminator.3_2/MatMul/ReadVariableOp"
  attr {
    key: "T"
    value {
      type: DT_FLOAT
    }
  }
  attr {
    key: "grad_a"
    value {
      b: true
    }
  }
  attr {
    key: "grad_b"
    value {
      b: false
    }
  }
  attr {
    key: "transpose_a"
    value {
      b: false
    }
  }
  attr {
    key: "transpose_b"
    value {
      b: true
    }
  }
}
node {
  name: "gradients/Discriminator.3_2/MatMul_grad/MatMul_1"
  op: "MatMul"
  input: "Discriminator.2_2/LeakyRelu"
  input: "gradients/Discriminator.3_2/LeakyRelu_grad/LeakyReluGrad"
  attr {
    key: "T"
    value {
      type: DT_FLOAT
    }
  }
  attr {
    key: "grad_a"
    value {
      b: false
    }
  }
  attr {
    key: "grad_b"
    value {
      b: true
    }
  }
  attr {
    key: "transpose_a"
    value {
      b: true
    }
  }
  attr {
    key: "transpose_b"
    value {
      b: false
    }
  }
}
node {
  name: "gradients/Discriminator.2_2/LeakyRelu_grad/LeakyReluGrad"
  op: "LeakyReluGrad"
  input: "gradients/Discriminator.3_2/MatMul_grad/MatMul"
  input: "Discriminator.2_2/add"
  attr {
    key: "T"
    value {
      type: DT_FLOAT
    }
  }
  attr {
    key: "alpha"
    value {
      f: 0.20000000298023224
    }
  }
}
node {
  name: "gradients/Discriminator.2_2/add_grad/Shape"
  op: "Const"
  attr {
    key: "dtype"
    value {
      type: DT_INT32
    }
  }
  attr {
    key: "value"
    value {
      tensor {
        dtype: DT_INT32
        tensor_shape {
          dim {
            size: 2
          }
        }
        tensor_content: "\220\001\000\000\200\000\000\000"
      }
    }
  }
}
node {
  name: "gradients/Discriminator.2_2/add_grad/Shape_1"
  op: "Const"
  attr {
    key: "dtype"
    value {
      type: DT_INT32
    }
  }
  attr {
    key: "value"
    value {
      tensor {
        dtype: DT_INT32
        tensor_shape {
          dim {
            size: 1
          }
        }
        int_val: 128
      }
    }
  }
}
node {
  name: "gradients/Discriminator.2_2/add_grad/Sum/reduction_indices"
  op: "Const"
  attr {
    key: "dtype"
    value {
      type: DT_INT32
    }
  }
  attr {
    key: "value"
    value {
      tensor {
        dtype: DT_INT32
        tensor_shape {
          dim {
            size: 1
          }
        }
        int_val: 0
      }
    }
  }
}
node {
  name: "gradients/Discriminator.2_2/add_grad/Sum"
  op: "Sum"
  input: "gradients/Discriminator.2_2/LeakyRelu_grad/LeakyReluGrad"
  input: "gradients/Discriminator.2_2/add_grad/Sum/reduction_indices"
  attr {
    key: "T"
    value {
      type: DT_FLOAT
    }
  }
  attr {
    key: "Tidx"
    value {
      type: DT_INT32
    }
  }
  attr {
    key: "keep_dims"
    value {
      b: true
    }
  }
}
node {
  name: "gradients/Discriminator.2_2/add_grad/Reshape"
  op: "Reshape"
  input: "gradients/Discriminator.2_2/add_grad/Sum"
  input: "gradients/Discriminator.2_2/add_grad/Shape_1"
  attr {
    key: "T"
    value {
      type: DT_FLOAT
    }
  }
  attr {
    key: "Tshape"
    value {
      type: DT_INT32
    }
  }
}
node {
  name: "gradients/Discriminator.2_2/MatMul_grad/MatMul"
  op: "MatMul"
  input: "gradients/Discriminator.2_2/LeakyRelu_grad/LeakyReluGrad"
  input: "Discriminator.2_2/MatMul/ReadVariableOp"
  attr {
    key: "T"
    value {
      type: DT_FLOAT
    }
  }
  attr {
    key: "grad_a"
    value {
      b: true
    }
  }
  attr {
    key: "grad_b"
    value {
      b: false
    }
  }
  attr {
    key: "transpose_a"
    value {
      b: false
    }
  }
  attr {
    key: "transpose_b"
    value {
      b: true
    }
  }
}
node {
  name: "gradients/Discriminator.2_2/MatMul_grad/MatMul_1"
  op: "MatMul"
  input: "Discriminator.1_2/LeakyRelu"
  input: "gradients/Discriminator.2_2/LeakyRelu_grad/LeakyReluGrad"
  attr {
    key: "T"
    value {
      type: DT_FLOAT
    }
  }
  attr {
    key: "grad_a"
    value {
      b: false
    }
  }
  attr {
    key: "grad_b"
    value {
      b: true
    }
  }
  attr {
    key: "transpose_a"
    value {
      b: true
    }
  }
  attr {
    key: "transpose_b"
    value {
      b: false
    }
  }
}
node {
  name: "gradients/Discriminator.1_2/LeakyRelu_grad/LeakyReluGrad"
  op: "LeakyReluGrad"
  input: "gradients/Discriminator.2_2/MatMul_grad/MatMul"
  input: "Discriminator.1_2/add"
  attr {
    key: "T"
    value {
      type: DT_FLOAT
    }
  }
  attr {
    key: "alpha"
    value {
      f: 0.20000000298023224
    }
  }
}
node {
  name: "gradients/Discriminator.1_2/add_grad/Shape"
  op: "Const"
  attr {
    key: "dtype"
    value {
      type: DT_INT32
    }
  }
  attr {
    key: "value"
    value {
      tensor {
        dtype: DT_INT32
        tensor_shape {
          dim {
            size: 2
          }
        }
        tensor_content: "\220\001\000\000@\000\000\000"
      }
    }
  }
}
node {
  name: "gradients/Discriminator.1_2/add_grad/Shape_1"
  op: "Const"
  attr {
    key: "dtype"
    value {
      type: DT_INT32
    }
  }
  attr {
    key: "value"
    value {
      tensor {
        dtype: DT_INT32
        tensor_shape {
          dim {
            size: 1
          }
        }
        int_val: 64
      }
    }
  }
}
node {
  name: "gradients/Discriminator.1_2/add_grad/Sum/reduction_indices"
  op: "Const"
  attr {
    key: "dtype"
    value {
      type: DT_INT32
    }
  }
  attr {
    key: "value"
    value {
      tensor {
        dtype: DT_INT32
        tensor_shape {
          dim {
            size: 1
          }
        }
        int_val: 0
      }
    }
  }
}
node {
  name: "gradients/Discriminator.1_2/add_grad/Sum"
  op: "Sum"
  input: "gradients/Discriminator.1_2/LeakyRelu_grad/LeakyReluGrad"
  input: "gradients/Discriminator.1_2/add_grad/Sum/reduction_indices"
  attr {
    key: "T"
    value {
      type: DT_FLOAT
    }
  }
  attr {
    key: "Tidx"
    value {
      type: DT_INT32
    }
  }
  attr {
    key: "keep_dims"
    value {
      b: true
    }
  }
}
node {
  name: "gradients/Discriminator.1_2/add_grad/Reshape"
  op: "Reshape"
  input: "gradients/Discriminator.1_2/add_grad/Sum"
  input: "gradients/Discriminator.1_2/add_grad/Shape_1"
  attr {
    key: "T"
    value {
      type: DT_FLOAT
    }
  }
  attr {
    key: "Tshape"
    value {
      type: DT_INT32
    }
  }
}
node {
  name: "gradients/Discriminator.1_2/MatMul_grad/MatMul"
  op: "MatMul"
  input: "gradients/Discriminator.1_2/LeakyRelu_grad/LeakyReluGrad"
  input: "Discriminator.1_2/MatMul/ReadVariableOp"
  attr {
    key: "T"
    value {
      type: DT_FLOAT
    }
  }
  attr {
    key: "grad_a"
    value {
      b: true
    }
  }
  attr {
    key: "grad_b"
    value {
      b: false
    }
  }
  attr {
    key: "transpose_a"
    value {
      b: false
    }
  }
  attr {
    key: "transpose_b"
    value {
      b: true
    }
  }
}
node {
  name: "gradients/Discriminator.1_2/MatMul_grad/MatMul_1"
  op: "MatMul"
  input: "add"
  input: "gradients/Discriminator.1_2/LeakyRelu_grad/LeakyReluGrad"
  attr {
    key: "T"
    value {
      type: DT_FLOAT
    }
  }
  attr {
    key: "grad_a"
    value {
      b: false
    }
  }
  attr {
    key: "grad_b"
    value {
      b: true
    }
  }
  attr {
    key: "transpose_a"
    value {
      b: true
    }
  }
  attr {
    key: "transpose_b"
    value {
      b: false
    }
  }
}
node {
  name: "Square"
  op: "Square"
  input: "gradients/Discriminator.1_2/MatMul_grad/MatMul"
  attr {
    key: "T"
    value {
      type: DT_FLOAT
    }
  }
}
node {
  name: "Sum/reduction_indices"
  op: "Const"
  attr {
    key: "dtype"
    value {
      type: DT_INT32
    }
  }
  attr {
    key: "value"
    value {
      tensor {
        dtype: DT_INT32
        tensor_shape {
          dim {
            size: 1
          }
        }
        int_val: 1
      }
    }
  }
}
node {
  name: "Sum"
  op: "Sum"
  input: "Square"
  input: "Sum/reduction_indices"
  attr {
    key: "T"
    value {
      type: DT_FLOAT
    }
  }
  attr {
    key: "Tidx"
    value {
      type: DT_INT32
    }
  }
  attr {
    key: "keep_dims"
    value {
      b: false
    }
  }
}
node {
  name: "Sqrt"
  op: "Sqrt"
  input: "Sum"
  attr {
    key: "T"
    value {
      type: DT_FLOAT
    }
  }
}
node {
  name: "sub_2/y"
  op: "Const"
  attr {
    key: "dtype"
    value {
      type: DT_FLOAT
    }
  }
  attr {
    key: "value"
    value {
      tensor {
        dtype: DT_FLOAT
        tensor_shape {
        }
        float_val: 1.0
      }
    }
  }
}
node {
  name: "sub_2"
  op: "Sub"
  input: "Sqrt"
  input: "sub_2/y"
  attr {
    key: "T"
    value {
      type: DT_FLOAT
    }
  }
}
node {
  name: "pow/y"
  op: "Const"
  attr {
    key: "dtype"
    value {
      type: DT_FLOAT
    }
  }
  attr {
    key: "value"
    value {
      tensor {
        dtype: DT_FLOAT
        tensor_shape {
        }
        float_val: 2.0
      }
    }
  }
}
node {
  name: "pow"
  op: "Pow"
  input: "sub_2"
  input: "pow/y"
  attr {
    key: "T"
    value {
      type: DT_FLOAT
    }
  }
}
node {
  name: "Const_3"
  op: "Const"
  attr {
    key: "dtype"
    value {
      type: DT_INT32
    }
  }
  attr {
    key: "value"
    value {
      tensor {
        dtype: DT_INT32
        tensor_shape {
          dim {
            size: 1
          }
        }
        int_val: 0
      }
    }
  }
}
node {
  name: "Mean_3"
  op: "Mean"
  input: "pow"
  input: "Const_3"
  attr {
    key: "T"
    value {
      type: DT_FLOAT
    }
  }
  attr {
    key: "Tidx"
    value {
      type: DT_INT32
    }
  }
  attr {
    key: "keep_dims"
    value {
      b: false
    }
  }
}
node {
  name: "mul_2/x"
  op: "Const"
  attr {
    key: "dtype"
    value {
      type: DT_FLOAT
    }
  }
  attr {
    key: "value"
    value {
      tensor {
        dtype: DT_FLOAT
        tensor_shape {
        }
        float_val: 10.0
      }
    }
  }
}
node {
  name: "mul_2"
  op: "Mul"
  input: "mul_2/x"
  input: "Mean_3"
  attr {
    key: "T"
    value {
      type: DT_FLOAT
    }
  }
}
node {
  name: "add_1"
  op: "AddV2"
  input: "sub"
  input: "mul_2"
  attr {
    key: "T"
    value {
      type: DT_FLOAT
    }
  }
}
node {
  name: "gradients_1/Shape"
  op: "Const"
  attr {
    key: "dtype"
    value {
      type: DT_INT32
    }
  }
  attr {
    key: "value"
    value {
      tensor {
        dtype: DT_INT32
        tensor_shape {
          dim {
          }
        }
      }
    }
  }
}
node {
  name: "gradients_1/grad_ys_0/Const"
  op: "Const"
  attr {
    key: "dtype"
    value {
      type: DT_FLOAT
    }
  }
  attr {
    key: "value"
    value {
      tensor {
        dtype: DT_FLOAT
        tensor_shape {
        }
        float_val: 1.0
      }
    }
  }
}
node {
  name: "gradients_1/grad_ys_0"
  op: "Fill"
  input: "gradients_1/Shape"
  input: "gradients_1/grad_ys_0/Const"
  attr {
    key: "T"
    value {
      type: DT_FLOAT
    }
  }
  attr {
    key: "index_type"
    value {
      type: DT_INT32
    }
  }
}
node {
  name: "gradients_1/Neg_grad/Neg"
  op: "Neg"
  input: "gradients_1/grad_ys_0"
  attr {
    key: "T"
    value {
      type: DT_FLOAT
    }
  }
}
node {
  name: "gradients_1/Mean_grad/Reshape/shape"
  op: "Const"
  attr {
    key: "dtype"
    value {
      type: DT_INT32
    }
  }
  attr {
    key: "value"
    value {
      tensor {
        dtype: DT_INT32
        tensor_shape {
          dim {
            size: 2
          }
        }
        tensor_content: "\001\000\000\000\001\000\000\000"
      }
    }
  }
}
node {
  name: "gradients_1/Mean_grad/Reshape"
  op: "Reshape"
  input: "gradients_1/Neg_grad/Neg"
  input: "gradients_1/Mean_grad/Reshape/shape"
  attr {
    key: "T"
    value {
      type: DT_FLOAT
    }
  }
  attr {
    key: "Tshape"
    value {
      type: DT_INT32
    }
  }
}
node {
  name: "gradients_1/Mean_grad/Const"
  op: "Const"
  attr {
    key: "dtype"
    value {
      type: DT_INT32
    }
  }
  attr {
    key: "value"
    value {
      tensor {
        dtype: DT_INT32
        tensor_shape {
          dim {
            size: 2
          }
        }
        tensor_content: "\220\001\000\000\001\000\000\000"
      }
    }
  }
}
node {
  name: "gradients_1/Mean_grad/Tile"
  op: "Tile"
  input: "gradients_1/Mean_grad/Reshape"
  input: "gradients_1/Mean_grad/Const"
  attr {
    key: "T"
    value {
      type: DT_FLOAT
    }
  }
  attr {
    key: "Tmultiples"
    value {
      type: DT_INT32
    }
  }
}
node {
  name: "gradients_1/Mean_grad/Const_1"
  op: "Const"
  attr {
    key: "dtype"
    value {
      type: DT_FLOAT
    }
  }
  attr {
    key: "value"
    value {
      tensor {
        dtype: DT_FLOAT
        tensor_shape {
        }
        float_val: 400.0
      }
    }
  }
}
node {
  name: "gradients_1/Mean_grad/truediv"
  op: "RealDiv"
  input: "gradients_1/Mean_grad/Tile"
  input: "gradients_1/Mean_grad/Const_1"
  attr {
    key: "T"
    value {
      type: DT_FLOAT
    }
  }
  attr {
    key: "_has_manual_control_dependencies"
    value {
      b: true
    }
  }
}
node {
  name: "gradients_1/Discriminator.4_1/add_grad/Shape"
  op: "Const"
  attr {
    key: "dtype"
    value {
      type: DT_INT32
    }
  }
  attr {
    key: "value"
    value {
      tensor {
        dtype: DT_INT32
        tensor_shape {
          dim {
            size: 2
          }
        }
        tensor_content: "\220\001\000\000\001\000\000\000"
      }
    }
  }
}
node {
  name: "gradients_1/Discriminator.4_1/add_grad/Shape_1"
  op: "Const"
  attr {
    key: "dtype"
    value {
      type: DT_INT32
    }
  }
  attr {
    key: "value"
    value {
      tensor {
        dtype: DT_INT32
        tensor_shape {
          dim {
            size: 1
          }
        }
        int_val: 1
      }
    }
  }
}
node {
  name: "gradients_1/Discriminator.4_1/add_grad/Sum/reduction_indices"
  op: "Const"
  attr {
    key: "dtype"
    value {
      type: DT_INT32
    }
  }
  attr {
    key: "value"
    value {
      tensor {
        dtype: DT_INT32
        tensor_shape {
          dim {
            size: 1
          }
        }
        int_val: 0
      }
    }
  }
}
node {
  name: "gradients_1/Discriminator.4_1/add_grad/Sum"
  op: "Sum"
  input: "gradients_1/Mean_grad/truediv"
  input: "gradients_1/Discriminator.4_1/add_grad/Sum/reduction_indices"
  attr {
    key: "T"
    value {
      type: DT_FLOAT
    }
  }
  attr {
    key: "Tidx"
    value {
      type: DT_INT32
    }
  }
  attr {
    key: "keep_dims"
    value {
      b: true
    }
  }
}
node {
  name: "gradients_1/Discriminator.4_1/add_grad/Reshape"
  op: "Reshape"
  input: "gradients_1/Discriminator.4_1/add_grad/Sum"
  input: "gradients_1/Discriminator.4_1/add_grad/Shape_1"
  attr {
    key: "T"
    value {
      type: DT_FLOAT
    }
  }
  attr {
    key: "Tshape"
    value {
      type: DT_INT32
    }
  }
  attr {
    key: "_has_manual_control_dependencies"
    value {
      b: true
    }
  }
}
node {
  name: "gradients_1/Discriminator.4_1/add_grad/tuple/group_deps"
  op: "NoOp"
  input: "^gradients_1/Discriminator.4_1/add_grad/Reshape"
  input: "^gradients_1/Mean_grad/truediv"
  attr {
    key: "_has_manual_control_dependencies"
    value {
      b: true
    }
  }
}
node {
  name: "gradients_1/Discriminator.4_1/add_grad/tuple/control_dependency"
  op: "Identity"
  input: "gradients_1/Mean_grad/truediv"
  input: "^gradients_1/Discriminator.4_1/add_grad/tuple/group_deps"
  attr {
    key: "T"
    value {
      type: DT_FLOAT
    }
  }
  attr {
    key: "_class"
    value {
      list {
        s: "loc:@gradients_1/Mean_grad/truediv"
      }
    }
  }
}
node {
  name: "gradients_1/Discriminator.4_1/add_grad/tuple/control_dependency_1"
  op: "Identity"
  input: "gradients_1/Discriminator.4_1/add_grad/Reshape"
  input: "^gradients_1/Discriminator.4_1/add_grad/tuple/group_deps"
  attr {
    key: "T"
    value {
      type: DT_FLOAT
    }
  }
  attr {
    key: "_class"
    value {
      list {
        s: "loc:@gradients_1/Discriminator.4_1/add_grad/Reshape"
      }
    }
  }
}
node {
  name: "gradients_1/Discriminator.4_1/MatMul_grad/MatMul"
  op: "MatMul"
  input: "gradients_1/Discriminator.4_1/add_grad/tuple/control_dependency"
  input: "Discriminator.4_1/MatMul/ReadVariableOp"
  attr {
    key: "T"
    value {
      type: DT_FLOAT
    }
  }
  attr {
    key: "_has_manual_control_dependencies"
    value {
      b: true
    }
  }
  attr {
    key: "grad_a"
    value {
      b: true
    }
  }
  attr {
    key: "grad_b"
    value {
      b: false
    }
  }
  attr {
    key: "transpose_a"
    value {
      b: false
    }
  }
  attr {
    key: "transpose_b"
    value {
      b: true
    }
  }
}
node {
  name: "gradients_1/Discriminator.4_1/MatMul_grad/MatMul_1"
  op: "MatMul"
  input: "Discriminator.3_1/LeakyRelu"
  input: "gradients_1/Discriminator.4_1/add_grad/tuple/control_dependency"
  attr {
    key: "T"
    value {
      type: DT_FLOAT
    }
  }
  attr {
    key: "_has_manual_control_dependencies"
    value {
      b: true
    }
  }
  attr {
    key: "grad_a"
    value {
      b: false
    }
  }
  attr {
    key: "grad_b"
    value {
      b: true
    }
  }
  attr {
    key: "transpose_a"
    value {
      b: true
    }
  }
  attr {
    key: "transpose_b"
    value {
      b: false
    }
  }
}
node {
  name: "gradients_1/Discriminator.4_1/MatMul_grad/tuple/group_deps"
  op: "NoOp"
  input: "^gradients_1/Discriminator.4_1/MatMul_grad/MatMul"
  input: "^gradients_1/Discriminator.4_1/MatMul_grad/MatMul_1"
  attr {
    key: "_has_manual_control_dependencies"
    value {
      b: true
    }
  }
}
node {
  name: "gradients_1/Discriminator.4_1/MatMul_grad/tuple/control_dependency"
  op: "Identity"
  input: "gradients_1/Discriminator.4_1/MatMul_grad/MatMul"
  input: "^gradients_1/Discriminator.4_1/MatMul_grad/tuple/group_deps"
  attr {
    key: "T"
    value {
      type: DT_FLOAT
    }
  }
  attr {
    key: "_class"
    value {
      list {
        s: "loc:@gradients_1/Discriminator.4_1/MatMul_grad/MatMul"
      }
    }
  }
}
node {
  name: "gradients_1/Discriminator.4_1/MatMul_grad/tuple/control_dependency_1"
  op: "Identity"
  input: "gradients_1/Discriminator.4_1/MatMul_grad/MatMul_1"
  input: "^gradients_1/Discriminator.4_1/MatMul_grad/tuple/group_deps"
  attr {
    key: "T"
    value {
      type: DT_FLOAT
    }
  }
  attr {
    key: "_class"
    value {
      list {
        s: "loc:@gradients_1/Discriminator.4_1/MatMul_grad/MatMul_1"
      }
    }
  }
}
node {
  name: "gradients_1/Discriminator.3_1/LeakyRelu_grad/LeakyReluGrad"
  op: "LeakyReluGrad"
  input: "gradients_1/Discriminator.4_1/MatMul_grad/tuple/control_dependency"
  input: "Discriminator.3_1/add"
  attr {
    key: "T"
    value {
      type: DT_FLOAT
    }
  }
  attr {
    key: "_has_manual_control_dependencies"
    value {
      b: true
    }
  }
  attr {
    key: "alpha"
    value {
      f: 0.20000000298023224
    }
  }
}
node {
  name: "gradients_1/Discriminator.3_1/add_grad/Shape"
  op: "Const"
  attr {
    key: "dtype"
    value {
      type: DT_INT32
    }
  }
  attr {
    key: "value"
    value {
      tensor {
        dtype: DT_INT32
        tensor_shape {
          dim {
            size: 2
          }
        }
        tensor_content: "\220\001\000\000\000\001\000\000"
      }
    }
  }
}
node {
  name: "gradients_1/Discriminator.3_1/add_grad/Shape_1"
  op: "Const"
  attr {
    key: "dtype"
    value {
      type: DT_INT32
    }
  }
  attr {
    key: "value"
    value {
      tensor {
        dtype: DT_INT32
        tensor_shape {
          dim {
            size: 1
          }
        }
        int_val: 256
      }
    }
  }
}
node {
  name: "gradients_1/Discriminator.3_1/add_grad/Sum/reduction_indices"
  op: "Const"
  attr {
    key: "dtype"
    value {
      type: DT_INT32
    }
  }
  attr {
    key: "value"
    value {
      tensor {
        dtype: DT_INT32
        tensor_shape {
          dim {
            size: 1
          }
        }
        int_val: 0
      }
    }
  }
}
node {
  name: "gradients_1/Discriminator.3_1/add_grad/Sum"
  op: "Sum"
  input: "gradients_1/Discriminator.3_1/LeakyRelu_grad/LeakyReluGrad"
  input: "gradients_1/Discriminator.3_1/add_grad/Sum/reduction_indices"
  attr {
    key: "T"
    value {
      type: DT_FLOAT
    }
  }
  attr {
    key: "Tidx"
    value {
      type: DT_INT32
    }
  }
  attr {
    key: "keep_dims"
    value {
      b: true
    }
  }
}
node {
  name: "gradients_1/Discriminator.3_1/add_grad/Reshape"
  op: "Reshape"
  input: "gradients_1/Discriminator.3_1/add_grad/Sum"
  input: "gradients_1/Discriminator.3_1/add_grad/Shape_1"
  attr {
    key: "T"
    value {
      type: DT_FLOAT
    }
  }
  attr {
    key: "Tshape"
    value {
      type: DT_INT32
    }
  }
  attr {
    key: "_has_manual_control_dependencies"
    value {
      b: true
    }
  }
}
node {
  name: "gradients_1/Discriminator.3_1/add_grad/tuple/group_deps"
  op: "NoOp"
  input: "^gradients_1/Discriminator.3_1/LeakyRelu_grad/LeakyReluGrad"
  input: "^gradients_1/Discriminator.3_1/add_grad/Reshape"
  attr {
    key: "_has_manual_control_dependencies"
    value {
      b: true
    }
  }
}
node {
  name: "gradients_1/Discriminator.3_1/add_grad/tuple/control_dependency"
  op: "Identity"
  input: "gradients_1/Discriminator.3_1/LeakyRelu_grad/LeakyReluGrad"
  input: "^gradients_1/Discriminator.3_1/add_grad/tuple/group_deps"
  attr {
    key: "T"
    value {
      type: DT_FLOAT
    }
  }
  attr {
    key: "_class"
    value {
      list {
        s: "loc:@gradients_1/Discriminator.3_1/LeakyRelu_grad/LeakyReluGrad"
      }
    }
  }
}
node {
  name: "gradients_1/Discriminator.3_1/add_grad/tuple/control_dependency_1"
  op: "Identity"
  input: "gradients_1/Discriminator.3_1/add_grad/Reshape"
  input: "^gradients_1/Discriminator.3_1/add_grad/tuple/group_deps"
  attr {
    key: "T"
    value {
      type: DT_FLOAT
    }
  }
  attr {
    key: "_class"
    value {
      list {
        s: "loc:@gradients_1/Discriminator.3_1/add_grad/Reshape"
      }
    }
  }
}
node {
  name: "gradients_1/Discriminator.3_1/MatMul_grad/MatMul"
  op: "MatMul"
  input: "gradients_1/Discriminator.3_1/add_grad/tuple/control_dependency"
  input: "Discriminator.3_1/MatMul/ReadVariableOp"
  attr {
    key: "T"
    value {
      type: DT_FLOAT
    }
  }
  attr {
    key: "_has_manual_control_dependencies"
    value {
      b: true
    }
  }
  attr {
    key: "grad_a"
    value {
      b: true
    }
  }
  attr {
    key: "grad_b"
    value {
      b: false
    }
  }
  attr {
    key: "transpose_a"
    value {
      b: false
    }
  }
  attr {
    key: "transpose_b"
    value {
      b: true
    }
  }
}
node {
  name: "gradients_1/Discriminator.3_1/MatMul_grad/MatMul_1"
  op: "MatMul"
  input: "Discriminator.2_1/LeakyRelu"
  input: "gradients_1/Discriminator.3_1/add_grad/tuple/control_dependency"
  attr {
    key: "T"
    value {
      type: DT_FLOAT
    }
  }
  attr {
    key: "_has_manual_control_dependencies"
    value {
      b: true
    }
  }
  attr {
    key: "grad_a"
    value {
      b: false
    }
  }
  attr {
    key: "grad_b"
    value {
      b: true
    }
  }
  attr {
    key: "transpose_a"
    value {
      b: true
    }
  }
  attr {
    key: "transpose_b"
    value {
      b: false
    }
  }
}
node {
  name: "gradients_1/Discriminator.3_1/MatMul_grad/tuple/group_deps"
  op: "NoOp"
  input: "^gradients_1/Discriminator.3_1/MatMul_grad/MatMul"
  input: "^gradients_1/Discriminator.3_1/MatMul_grad/MatMul_1"
  attr {
    key: "_has_manual_control_dependencies"
    value {
      b: true
    }
  }
}
node {
  name: "gradients_1/Discriminator.3_1/MatMul_grad/tuple/control_dependency"
  op: "Identity"
  input: "gradients_1/Discriminator.3_1/MatMul_grad/MatMul"
  input: "^gradients_1/Discriminator.3_1/MatMul_grad/tuple/group_deps"
  attr {
    key: "T"
    value {
      type: DT_FLOAT
    }
  }
  attr {
    key: "_class"
    value {
      list {
        s: "loc:@gradients_1/Discriminator.3_1/MatMul_grad/MatMul"
      }
    }
  }
}
node {
  name: "gradients_1/Discriminator.3_1/MatMul_grad/tuple/control_dependency_1"
  op: "Identity"
  input: "gradients_1/Discriminator.3_1/MatMul_grad/MatMul_1"
  input: "^gradients_1/Discriminator.3_1/MatMul_grad/tuple/group_deps"
  attr {
    key: "T"
    value {
      type: DT_FLOAT
    }
  }
  attr {
    key: "_class"
    value {
      list {
        s: "loc:@gradients_1/Discriminator.3_1/MatMul_grad/MatMul_1"
      }
    }
  }
}
node {
  name: "gradients_1/Discriminator.2_1/LeakyRelu_grad/LeakyReluGrad"
  op: "LeakyReluGrad"
  input: "gradients_1/Discriminator.3_1/MatMul_grad/tuple/control_dependency"
  input: "Discriminator.2_1/add"
  attr {
    key: "T"
    value {
      type: DT_FLOAT
    }
  }
  attr {
    key: "_has_manual_control_dependencies"
    value {
      b: true
    }
  }
  attr {
    key: "alpha"
    value {
      f: 0.20000000298023224
    }
  }
}
node {
  name: "gradients_1/Discriminator.2_1/add_grad/Shape"
  op: "Const"
  attr {
    key: "dtype"
    value {
      type: DT_INT32
    }
  }
  attr {
    key: "value"
    value {
      tensor {
        dtype: DT_INT32
        tensor_shape {
          dim {
            size: 2
          }
        }
        tensor_content: "\220\001\000\000\200\000\000\000"
      }
    }
  }
}
node {
  name: "gradients_1/Discriminator.2_1/add_grad/Shape_1"
  op: "Const"
  attr {
    key: "dtype"
    value {
      type: DT_INT32
    }
  }
  attr {
    key: "value"
    value {
      tensor {
        dtype: DT_INT32
        tensor_shape {
          dim {
            size: 1
          }
        }
        int_val: 128
      }
    }
  }
}
node {
  name: "gradients_1/Discriminator.2_1/add_grad/Sum/reduction_indices"
  op: "Const"
  attr {
    key: "dtype"
    value {
      type: DT_INT32
    }
  }
  attr {
    key: "value"
    value {
      tensor {
        dtype: DT_INT32
        tensor_shape {
          dim {
            size: 1
          }
        }
        int_val: 0
      }
    }
  }
}
node {
  name: "gradients_1/Discriminator.2_1/add_grad/Sum"
  op: "Sum"
  input: "gradients_1/Discriminator.2_1/LeakyRelu_grad/LeakyReluGrad"
  input: "gradients_1/Discriminator.2_1/add_grad/Sum/reduction_indices"
  attr {
    key: "T"
    value {
      type: DT_FLOAT
    }
  }
  attr {
    key: "Tidx"
    value {
      type: DT_INT32
    }
  }
  attr {
    key: "keep_dims"
    value {
      b: true
    }
  }
}
node {
  name: "gradients_1/Discriminator.2_1/add_grad/Reshape"
  op: "Reshape"
  input: "gradients_1/Discriminator.2_1/add_grad/Sum"
  input: "gradients_1/Discriminator.2_1/add_grad/Shape_1"
  attr {
    key: "T"
    value {
      type: DT_FLOAT
    }
  }
  attr {
    key: "Tshape"
    value {
      type: DT_INT32
    }
  }
  attr {
    key: "_has_manual_control_dependencies"
    value {
      b: true
    }
  }
}
node {
  name: "gradients_1/Discriminator.2_1/add_grad/tuple/group_deps"
  op: "NoOp"
  input: "^gradients_1/Discriminator.2_1/LeakyRelu_grad/LeakyReluGrad"
  input: "^gradients_1/Discriminator.2_1/add_grad/Reshape"
  attr {
    key: "_has_manual_control_dependencies"
    value {
      b: true
    }
  }
}
node {
  name: "gradients_1/Discriminator.2_1/add_grad/tuple/control_dependency"
  op: "Identity"
  input: "gradients_1/Discriminator.2_1/LeakyRelu_grad/LeakyReluGrad"
  input: "^gradients_1/Discriminator.2_1/add_grad/tuple/group_deps"
  attr {
    key: "T"
    value {
      type: DT_FLOAT
    }
  }
  attr {
    key: "_class"
    value {
      list {
        s: "loc:@gradients_1/Discriminator.2_1/LeakyRelu_grad/LeakyReluGrad"
      }
    }
  }
}
node {
  name: "gradients_1/Discriminator.2_1/add_grad/tuple/control_dependency_1"
  op: "Identity"
  input: "gradients_1/Discriminator.2_1/add_grad/Reshape"
  input: "^gradients_1/Discriminator.2_1/add_grad/tuple/group_deps"
  attr {
    key: "T"
    value {
      type: DT_FLOAT
    }
  }
  attr {
    key: "_class"
    value {
      list {
        s: "loc:@gradients_1/Discriminator.2_1/add_grad/Reshape"
      }
    }
  }
}
node {
  name: "gradients_1/Discriminator.2_1/MatMul_grad/MatMul"
  op: "MatMul"
  input: "gradients_1/Discriminator.2_1/add_grad/tuple/control_dependency"
  input: "Discriminator.2_1/MatMul/ReadVariableOp"
  attr {
    key: "T"
    value {
      type: DT_FLOAT
    }
  }
  attr {
    key: "_has_manual_control_dependencies"
    value {
      b: true
    }
  }
  attr {
    key: "grad_a"
    value {
      b: true
    }
  }
  attr {
    key: "grad_b"
    value {
      b: false
    }
  }
  attr {
    key: "transpose_a"
    value {
      b: false
    }
  }
  attr {
    key: "transpose_b"
    value {
      b: true
    }
  }
}
node {
  name: "gradients_1/Discriminator.2_1/MatMul_grad/MatMul_1"
  op: "MatMul"
  input: "Discriminator.1_1/LeakyRelu"
  input: "gradients_1/Discriminator.2_1/add_grad/tuple/control_dependency"
  attr {
    key: "T"
    value {
      type: DT_FLOAT
    }
  }
  attr {
    key: "_has_manual_control_dependencies"
    value {
      b: true
    }
  }
  attr {
    key: "grad_a"
    value {
      b: false
    }
  }
  attr {
    key: "grad_b"
    value {
      b: true
    }
  }
  attr {
    key: "transpose_a"
    value {
      b: true
    }
  }
  attr {
    key: "transpose_b"
    value {
      b: false
    }
  }
}
node {
  name: "gradients_1/Discriminator.2_1/MatMul_grad/tuple/group_deps"
  op: "NoOp"
  input: "^gradients_1/Discriminator.2_1/MatMul_grad/MatMul"
  input: "^gradients_1/Discriminator.2_1/MatMul_grad/MatMul_1"
  attr {
    key: "_has_manual_control_dependencies"
    value {
      b: true
    }
  }
}
node {
  name: "gradients_1/Discriminator.2_1/MatMul_grad/tuple/control_dependency"
  op: "Identity"
  input: "gradients_1/Discriminator.2_1/MatMul_grad/MatMul"
  input: "^gradients_1/Discriminator.2_1/MatMul_grad/tuple/group_deps"
  attr {
    key: "T"
    value {
      type: DT_FLOAT
    }
  }
  attr {
    key: "_class"
    value {
      list {
        s: "loc:@gradients_1/Discriminator.2_1/MatMul_grad/MatMul"
      }
    }
  }
}
node {
  name: "gradients_1/Discriminator.2_1/MatMul_grad/tuple/control_dependency_1"
  op: "Identity"
  input: "gradients_1/Discriminator.2_1/MatMul_grad/MatMul_1"
  input: "^gradients_1/Discriminator.2_1/MatMul_grad/tuple/group_deps"
  attr {
    key: "T"
    value {
      type: DT_FLOAT
    }
  }
  attr {
    key: "_class"
    value {
      list {
        s: "loc:@gradients_1/Discriminator.2_1/MatMul_grad/MatMul_1"
      }
    }
  }
}
node {
  name: "gradients_1/Discriminator.1_1/LeakyRelu_grad/LeakyReluGrad"
  op: "LeakyReluGrad"
  input: "gradients_1/Discriminator.2_1/MatMul_grad/tuple/control_dependency"
  input: "Discriminator.1_1/add"
  attr {
    key: "T"
    value {
      type: DT_FLOAT
    }
  }
  attr {
    key: "_has_manual_control_dependencies"
    value {
      b: true
    }
  }
  attr {
    key: "alpha"
    value {
      f: 0.20000000298023224
    }
  }
}
node {
  name: "gradients_1/Discriminator.1_1/add_grad/Shape"
  op: "Const"
  attr {
    key: "dtype"
    value {
      type: DT_INT32
    }
  }
  attr {
    key: "value"
    value {
      tensor {
        dtype: DT_INT32
        tensor_shape {
          dim {
            size: 2
          }
        }
        tensor_content: "\220\001\000\000@\000\000\000"
      }
    }
  }
}
node {
  name: "gradients_1/Discriminator.1_1/add_grad/Shape_1"
  op: "Const"
  attr {
    key: "dtype"
    value {
      type: DT_INT32
    }
  }
  attr {
    key: "value"
    value {
      tensor {
        dtype: DT_INT32
        tensor_shape {
          dim {
            size: 1
          }
        }
        int_val: 64
      }
    }
  }
}
node {
  name: "gradients_1/Discriminator.1_1/add_grad/Sum/reduction_indices"
  op: "Const"
  attr {
    key: "dtype"
    value {
      type: DT_INT32
    }
  }
  attr {
    key: "value"
    value {
      tensor {
        dtype: DT_INT32
        tensor_shape {
          dim {
            size: 1
          }
        }
        int_val: 0
      }
    }
  }
}
node {
  name: "gradients_1/Discriminator.1_1/add_grad/Sum"
  op: "Sum"
  input: "gradients_1/Discriminator.1_1/LeakyRelu_grad/LeakyReluGrad"
  input: "gradients_1/Discriminator.1_1/add_grad/Sum/reduction_indices"
  attr {
    key: "T"
    value {
      type: DT_FLOAT
    }
  }
  attr {
    key: "Tidx"
    value {
      type: DT_INT32
    }
  }
  attr {
    key: "keep_dims"
    value {
      b: true
    }
  }
}
node {
  name: "gradients_1/Discriminator.1_1/add_grad/Reshape"
  op: "Reshape"
  input: "gradients_1/Discriminator.1_1/add_grad/Sum"
  input: "gradients_1/Discriminator.1_1/add_grad/Shape_1"
  attr {
    key: "T"
    value {
      type: DT_FLOAT
    }
  }
  attr {
    key: "Tshape"
    value {
      type: DT_INT32
    }
  }
  attr {
    key: "_has_manual_control_dependencies"
    value {
      b: true
    }
  }
}
node {
  name: "gradients_1/Discriminator.1_1/add_grad/tuple/group_deps"
  op: "NoOp"
  input: "^gradients_1/Discriminator.1_1/LeakyRelu_grad/LeakyReluGrad"
  input: "^gradients_1/Discriminator.1_1/add_grad/Reshape"
  attr {
    key: "_has_manual_control_dependencies"
    value {
      b: true
    }
  }
}
node {
  name: "gradients_1/Discriminator.1_1/add_grad/tuple/control_dependency"
  op: "Identity"
  input: "gradients_1/Discriminator.1_1/LeakyRelu_grad/LeakyReluGrad"
  input: "^gradients_1/Discriminator.1_1/add_grad/tuple/group_deps"
  attr {
    key: "T"
    value {
      type: DT_FLOAT
    }
  }
  attr {
    key: "_class"
    value {
      list {
        s: "loc:@gradients_1/Discriminator.1_1/LeakyRelu_grad/LeakyReluGrad"
      }
    }
  }
}
node {
  name: "gradients_1/Discriminator.1_1/add_grad/tuple/control_dependency_1"
  op: "Identity"
  input: "gradients_1/Discriminator.1_1/add_grad/Reshape"
  input: "^gradients_1/Discriminator.1_1/add_grad/tuple/group_deps"
  attr {
    key: "T"
    value {
      type: DT_FLOAT
    }
  }
  attr {
    key: "_class"
    value {
      list {
        s: "loc:@gradients_1/Discriminator.1_1/add_grad/Reshape"
      }
    }
  }
}
node {
  name: "gradients_1/Discriminator.1_1/MatMul_grad/MatMul"
  op: "MatMul"
  input: "gradients_1/Discriminator.1_1/add_grad/tuple/control_dependency"
  input: "Discriminator.1_1/MatMul/ReadVariableOp"
  attr {
    key: "T"
    value {
      type: DT_FLOAT
    }
  }
  attr {
    key: "_has_manual_control_dependencies"
    value {
      b: true
    }
  }
  attr {
    key: "grad_a"
    value {
      b: true
    }
  }
  attr {
    key: "grad_b"
    value {
      b: false
    }
  }
  attr {
    key: "transpose_a"
    value {
      b: false
    }
  }
  attr {
    key: "transpose_b"
    value {
      b: true
    }
  }
}
node {
  name: "gradients_1/Discriminator.1_1/MatMul_grad/MatMul_1"
  op: "MatMul"
  input: "Generator.3/Sigmoid"
  input: "gradients_1/Discriminator.1_1/add_grad/tuple/control_dependency"
  attr {
    key: "T"
    value {
      type: DT_FLOAT
    }
  }
  attr {
    key: "_has_manual_control_dependencies"
    value {
      b: true
    }
  }
  attr {
    key: "grad_a"
    value {
      b: false
    }
  }
  attr {
    key: "grad_b"
    value {
      b: true
    }
  }
  attr {
    key: "transpose_a"
    value {
      b: true
    }
  }
  attr {
    key: "transpose_b"
    value {
      b: false
    }
  }
}
node {
  name: "gradients_1/Discriminator.1_1/MatMul_grad/tuple/group_deps"
  op: "NoOp"
  input: "^gradients_1/Discriminator.1_1/MatMul_grad/MatMul"
  input: "^gradients_1/Discriminator.1_1/MatMul_grad/MatMul_1"
  attr {
    key: "_has_manual_control_dependencies"
    value {
      b: true
    }
  }
}
node {
  name: "gradients_1/Discriminator.1_1/MatMul_grad/tuple/control_dependency"
  op: "Identity"
  input: "gradients_1/Discriminator.1_1/MatMul_grad/MatMul"
  input: "^gradients_1/Discriminator.1_1/MatMul_grad/tuple/group_deps"
  attr {
    key: "T"
    value {
      type: DT_FLOAT
    }
  }
  attr {
    key: "_class"
    value {
      list {
        s: "loc:@gradients_1/Discriminator.1_1/MatMul_grad/MatMul"
      }
    }
  }
  attr {
    key: "_has_manual_control_dependencies"
    value {
      b: true
    }
  }
}
node {
  name: "gradients_1/Discriminator.1_1/MatMul_grad/tuple/control_dependency_1"
  op: "Identity"
  input: "gradients_1/Discriminator.1_1/MatMul_grad/MatMul_1"
  input: "^gradients_1/Discriminator.1_1/MatMul_grad/tuple/group_deps"
  attr {
    key: "T"
    value {
      type: DT_FLOAT
    }
  }
  attr {
    key: "_class"
    value {
      list {
        s: "loc:@gradients_1/Discriminator.1_1/MatMul_grad/MatMul_1"
      }
    }
  }
}
node {
  name: "gradients_1/Generator.3/Sigmoid_grad/SigmoidGrad"
  op: "SigmoidGrad"
  input: "Generator.3/Sigmoid"
  input: "gradients_1/Discriminator.1_1/MatMul_grad/tuple/control_dependency"
  attr {
    key: "T"
    value {
      type: DT_FLOAT
    }
  }
  attr {
    key: "_has_manual_control_dependencies"
    value {
      b: true
    }
  }
}
node {
  name: "gradients_1/Generator.3/add_grad/Shape"
  op: "Const"
  attr {
    key: "dtype"
    value {
      type: DT_INT32
    }
  }
  attr {
    key: "value"
    value {
      tensor {
        dtype: DT_INT32
        tensor_shape {
          dim {
            size: 2
          }
        }
        tensor_content: "\220\001\000\000+\000\000\000"
      }
    }
  }
}
node {
  name: "gradients_1/Generator.3/add_grad/Shape_1"
  op: "Const"
  attr {
    key: "dtype"
    value {
      type: DT_INT32
    }
  }
  attr {
    key: "value"
    value {
      tensor {
        dtype: DT_INT32
        tensor_shape {
          dim {
            size: 1
          }
        }
        int_val: 43
      }
    }
  }
}
node {
  name: "gradients_1/Generator.3/add_grad/Sum/reduction_indices"
  op: "Const"
  attr {
    key: "dtype"
    value {
      type: DT_INT32
    }
  }
  attr {
    key: "value"
    value {
      tensor {
        dtype: DT_INT32
        tensor_shape {
          dim {
            size: 1
          }
        }
        int_val: 0
      }
    }
  }
}
node {
  name: "gradients_1/Generator.3/add_grad/Sum"
  op: "Sum"
  input: "gradients_1/Generator.3/Sigmoid_grad/SigmoidGrad"
  input: "gradients_1/Generator.3/add_grad/Sum/reduction_indices"
  attr {
    key: "T"
    value {
      type: DT_FLOAT
    }
  }
  attr {
    key: "Tidx"
    value {
      type: DT_INT32
    }
  }
  attr {
    key: "keep_dims"
    value {
      b: true
    }
  }
}
node {
  name: "gradients_1/Generator.3/add_grad/Reshape"
  op: "Reshape"
  input: "gradients_1/Generator.3/add_grad/Sum"
  input: "gradients_1/Generator.3/add_grad/Shape_1"
  attr {
    key: "T"
    value {
      type: DT_FLOAT
    }
  }
  attr {
    key: "Tshape"
    value {
      type: DT_INT32
    }
  }
  attr {
    key: "_has_manual_control_dependencies"
    value {
      b: true
    }
  }
}
node {
  name: "gradients_1/Generator.3/add_grad/tuple/group_deps"
  op: "NoOp"
  input: "^gradients_1/Generator.3/Sigmoid_grad/SigmoidGrad"
  input: "^gradients_1/Generator.3/add_grad/Reshape"
  attr {
    key: "_has_manual_control_dependencies"
    value {
      b: true
    }
  }
}
node {
  name: "gradients_1/Generator.3/add_grad/tuple/control_dependency"
  op: "Identity"
  input: "gradients_1/Generator.3/Sigmoid_grad/SigmoidGrad"
  input: "^gradients_1/Generator.3/add_grad/tuple/group_deps"
  attr {
    key: "T"
    value {
      type: DT_FLOAT
    }
  }
  attr {
    key: "_class"
    value {
      list {
        s: "loc:@gradients_1/Generator.3/Sigmoid_grad/SigmoidGrad"
      }
    }
  }
}
node {
  name: "gradients_1/Generator.3/add_grad/tuple/control_dependency_1"
  op: "Identity"
  input: "gradients_1/Generator.3/add_grad/Reshape"
  input: "^gradients_1/Generator.3/add_grad/tuple/group_deps"
  attr {
    key: "T"
    value {
      type: DT_FLOAT
    }
  }
  attr {
    key: "_class"
    value {
      list {
        s: "loc:@gradients_1/Generator.3/add_grad/Reshape"
      }
    }
  }
}
node {
  name: "gradients_1/Generator.3/MatMul_grad/MatMul"
  op: "MatMul"
  input: "gradients_1/Generator.3/add_grad/tuple/control_dependency"
  input: "Generator.3/MatMul/ReadVariableOp"
  attr {
    key: "T"
    value {
      type: DT_FLOAT
    }
  }
  attr {
    key: "_has_manual_control_dependencies"
    value {
      b: true
    }
  }
  attr {
    key: "grad_a"
    value {
      b: true
    }
  }
  attr {
    key: "grad_b"
    value {
      b: false
    }
  }
  attr {
    key: "transpose_a"
    value {
      b: false
    }
  }
  attr {
    key: "transpose_b"
    value {
      b: true
    }
  }
}
node {
  name: "gradients_1/Generator.3/MatMul_grad/MatMul_1"
  op: "MatMul"
  input: "Generator.2/Relu"
  input: "gradients_1/Generator.3/add_grad/tuple/control_dependency"
  attr {
    key: "T"
    value {
      type: DT_FLOAT
    }
  }
  attr {
    key: "_has_manual_control_dependencies"
    value {
      b: true
    }
  }
  attr {
    key: "grad_a"
    value {
      b: false
    }
  }
  attr {
    key: "grad_b"
    value {
      b: true
    }
  }
  attr {
    key: "transpose_a"
    value {
      b: true
    }
  }
  attr {
    key: "transpose_b"
    value {
      b: false
    }
  }
}
node {
  name: "gradients_1/Generator.3/MatMul_grad/tuple/group_deps"
  op: "NoOp"
  input: "^gradients_1/Generator.3/MatMul_grad/MatMul"
  input: "^gradients_1/Generator.3/MatMul_grad/MatMul_1"
  attr {
    key: "_has_manual_control_dependencies"
    value {
      b: true
    }
  }
}
node {
  name: "gradients_1/Generator.3/MatMul_grad/tuple/control_dependency"
  op: "Identity"
  input: "gradients_1/Generator.3/MatMul_grad/MatMul"
  input: "^gradients_1/Generator.3/MatMul_grad/tuple/group_deps"
  attr {
    key: "T"
    value {
      type: DT_FLOAT
    }
  }
  attr {
    key: "_class"
    value {
      list {
        s: "loc:@gradients_1/Generator.3/MatMul_grad/MatMul"
      }
    }
  }
}
node {
  name: "gradients_1/Generator.3/MatMul_grad/tuple/control_dependency_1"
  op: "Identity"
  input: "gradients_1/Generator.3/MatMul_grad/MatMul_1"
  input: "^gradients_1/Generator.3/MatMul_grad/tuple/group_deps"
  attr {
    key: "T"
    value {
      type: DT_FLOAT
    }
  }
  attr {
    key: "_class"
    value {
      list {
        s: "loc:@gradients_1/Generator.3/MatMul_grad/MatMul_1"
      }
    }
  }
}
node {
  name: "gradients_1/Generator.2/Relu_grad/ReluGrad"
  op: "ReluGrad"
  input: "gradients_1/Generator.3/MatMul_grad/tuple/control_dependency"
  input: "Generator.2/Relu"
  attr {
    key: "T"
    value {
      type: DT_FLOAT
    }
  }
  attr {
    key: "_has_manual_control_dependencies"
    value {
      b: true
    }
  }
}
node {
  name: "gradients_1/Generator.2/add_grad/Shape"
  op: "Const"
  attr {
    key: "dtype"
    value {
      type: DT_INT32
    }
  }
  attr {
    key: "value"
    value {
      tensor {
        dtype: DT_INT32
        tensor_shape {
          dim {
            size: 2
          }
        }
        tensor_content: "\220\001\000\000@\000\000\000"
      }
    }
  }
}
node {
  name: "gradients_1/Generator.2/add_grad/Shape_1"
  op: "Const"
  attr {
    key: "dtype"
    value {
      type: DT_INT32
    }
  }
  attr {
    key: "value"
    value {
      tensor {
        dtype: DT_INT32
        tensor_shape {
          dim {
            size: 1
          }
        }
        int_val: 64
      }
    }
  }
}
node {
  name: "gradients_1/Generator.2/add_grad/Sum/reduction_indices"
  op: "Const"
  attr {
    key: "dtype"
    value {
      type: DT_INT32
    }
  }
  attr {
    key: "value"
    value {
      tensor {
        dtype: DT_INT32
        tensor_shape {
          dim {
            size: 1
          }
        }
        int_val: 0
      }
    }
  }
}
node {
  name: "gradients_1/Generator.2/add_grad/Sum"
  op: "Sum"
  input: "gradients_1/Generator.2/Relu_grad/ReluGrad"
  input: "gradients_1/Generator.2/add_grad/Sum/reduction_indices"
  attr {
    key: "T"
    value {
      type: DT_FLOAT
    }
  }
  attr {
    key: "Tidx"
    value {
      type: DT_INT32
    }
  }
  attr {
    key: "keep_dims"
    value {
      b: true
    }
  }
}
node {
  name: "gradients_1/Generator.2/add_grad/Reshape"
  op: "Reshape"
  input: "gradients_1/Generator.2/add_grad/Sum"
  input: "gradients_1/Generator.2/add_grad/Shape_1"
  attr {
    key: "T"
    value {
      type: DT_FLOAT
    }
  }
  attr {
    key: "Tshape"
    value {
      type: DT_INT32
    }
  }
  attr {
    key: "_has_manual_control_dependencies"
    value {
      b: true
    }
  }
}
node {
  name: "gradients_1/Generator.2/add_grad/tuple/group_deps"
  op: "NoOp"
  input: "^gradients_1/Generator.2/Relu_grad/ReluGrad"
  input: "^gradients_1/Generator.2/add_grad/Reshape"
  attr {
    key: "_has_manual_control_dependencies"
    value {
      b: true
    }
  }
}
node {
  name: "gradients_1/Generator.2/add_grad/tuple/control_dependency"
  op: "Identity"
  input: "gradients_1/Generator.2/Relu_grad/ReluGrad"
  input: "^gradients_1/Generator.2/add_grad/tuple/group_deps"
  attr {
    key: "T"
    value {
      type: DT_FLOAT
    }
  }
  attr {
    key: "_class"
    value {
      list {
        s: "loc:@gradients_1/Generator.2/Relu_grad/ReluGrad"
      }
    }
  }
}
node {
  name: "gradients_1/Generator.2/add_grad/tuple/control_dependency_1"
  op: "Identity"
  input: "gradients_1/Generator.2/add_grad/Reshape"
  input: "^gradients_1/Generator.2/add_grad/tuple/group_deps"
  attr {
    key: "T"
    value {
      type: DT_FLOAT
    }
  }
  attr {
    key: "_class"
    value {
      list {
        s: "loc:@gradients_1/Generator.2/add_grad/Reshape"
      }
    }
  }
}
node {
  name: "gradients_1/Generator.2/MatMul_grad/MatMul"
  op: "MatMul"
  input: "gradients_1/Generator.2/add_grad/tuple/control_dependency"
  input: "Generator.2/MatMul/ReadVariableOp"
  attr {
    key: "T"
    value {
      type: DT_FLOAT
    }
  }
  attr {
    key: "_has_manual_control_dependencies"
    value {
      b: true
    }
  }
  attr {
    key: "grad_a"
    value {
      b: true
    }
  }
  attr {
    key: "grad_b"
    value {
      b: false
    }
  }
  attr {
    key: "transpose_a"
    value {
      b: false
    }
  }
  attr {
    key: "transpose_b"
    value {
      b: true
    }
  }
}
node {
  name: "gradients_1/Generator.2/MatMul_grad/MatMul_1"
  op: "MatMul"
  input: "Generator.1/Relu"
  input: "gradients_1/Generator.2/add_grad/tuple/control_dependency"
  attr {
    key: "T"
    value {
      type: DT_FLOAT
    }
  }
  attr {
    key: "_has_manual_control_dependencies"
    value {
      b: true
    }
  }
  attr {
    key: "grad_a"
    value {
      b: false
    }
  }
  attr {
    key: "grad_b"
    value {
      b: true
    }
  }
  attr {
    key: "transpose_a"
    value {
      b: true
    }
  }
  attr {
    key: "transpose_b"
    value {
      b: false
    }
  }
}
node {
  name: "gradients_1/Generator.2/MatMul_grad/tuple/group_deps"
  op: "NoOp"
  input: "^gradients_1/Generator.2/MatMul_grad/MatMul"
  input: "^gradients_1/Generator.2/MatMul_grad/MatMul_1"
  attr {
    key: "_has_manual_control_dependencies"
    value {
      b: true
    }
  }
}
node {
  name: "gradients_1/Generator.2/MatMul_grad/tuple/control_dependency"
  op: "Identity"
  input: "gradients_1/Generator.2/MatMul_grad/MatMul"
  input: "^gradients_1/Generator.2/MatMul_grad/tuple/group_deps"
  attr {
    key: "T"
    value {
      type: DT_FLOAT
    }
  }
  attr {
    key: "_class"
    value {
      list {
        s: "loc:@gradients_1/Generator.2/MatMul_grad/MatMul"
      }
    }
  }
}
node {
  name: "gradients_1/Generator.2/MatMul_grad/tuple/control_dependency_1"
  op: "Identity"
  input: "gradients_1/Generator.2/MatMul_grad/MatMul_1"
  input: "^gradients_1/Generator.2/MatMul_grad/tuple/group_deps"
  attr {
    key: "T"
    value {
      type: DT_FLOAT
    }
  }
  attr {
    key: "_class"
    value {
      list {
        s: "loc:@gradients_1/Generator.2/MatMul_grad/MatMul_1"
      }
    }
  }
}
node {
  name: "gradients_1/Generator.1/Relu_grad/ReluGrad"
  op: "ReluGrad"
  input: "gradients_1/Generator.2/MatMul_grad/tuple/control_dependency"
  input: "Generator.1/Relu"
  attr {
    key: "T"
    value {
      type: DT_FLOAT
    }
  }
  attr {
    key: "_has_manual_control_dependencies"
    value {
      b: true
    }
  }
}
node {
  name: "gradients_1/Generator.1/add_grad/Shape"
  op: "Const"
  attr {
    key: "dtype"
    value {
      type: DT_INT32
    }
  }
  attr {
    key: "value"
    value {
      tensor {
        dtype: DT_INT32
        tensor_shape {
          dim {
            size: 2
          }
        }
        tensor_content: "\220\001\000\000V\000\000\000"
      }
    }
  }
}
node {
  name: "gradients_1/Generator.1/add_grad/Shape_1"
  op: "Const"
  attr {
    key: "dtype"
    value {
      type: DT_INT32
    }
  }
  attr {
    key: "value"
    value {
      tensor {
        dtype: DT_INT32
        tensor_shape {
          dim {
            size: 1
          }
        }
        int_val: 86
      }
    }
  }
}
node {
  name: "gradients_1/Generator.1/add_grad/Sum/reduction_indices"
  op: "Const"
  attr {
    key: "dtype"
    value {
      type: DT_INT32
    }
  }
  attr {
    key: "value"
    value {
      tensor {
        dtype: DT_INT32
        tensor_shape {
          dim {
            size: 1
          }
        }
        int_val: 0
      }
    }
  }
}
node {
  name: "gradients_1/Generator.1/add_grad/Sum"
  op: "Sum"
  input: "gradients_1/Generator.1/Relu_grad/ReluGrad"
  input: "gradients_1/Generator.1/add_grad/Sum/reduction_indices"
  attr {
    key: "T"
    value {
      type: DT_FLOAT
    }
  }
  attr {
    key: "Tidx"
    value {
      type: DT_INT32
    }
  }
  attr {
    key: "keep_dims"
    value {
      b: true
    }
  }
}
node {
  name: "gradients_1/Generator.1/add_grad/Reshape"
  op: "Reshape"
  input: "gradients_1/Generator.1/add_grad/Sum"
  input: "gradients_1/Generator.1/add_grad/Shape_1"
  attr {
    key: "T"
    value {
      type: DT_FLOAT
    }
  }
  attr {
    key: "Tshape"
    value {
      type: DT_INT32
    }
  }
  attr {
    key: "_has_manual_control_dependencies"
    value {
      b: true
    }
  }
}
node {
  name: "gradients_1/Generator.1/add_grad/tuple/group_deps"
  op: "NoOp"
  input: "^gradients_1/Generator.1/Relu_grad/ReluGrad"
  input: "^gradients_1/Generator.1/add_grad/Reshape"
  attr {
    key: "_has_manual_control_dependencies"
    value {
      b: true
    }
  }
}
node {
  name: "gradients_1/Generator.1/add_grad/tuple/control_dependency"
  op: "Identity"
  input: "gradients_1/Generator.1/Relu_grad/ReluGrad"
  input: "^gradients_1/Generator.1/add_grad/tuple/group_deps"
  attr {
    key: "T"
    value {
      type: DT_FLOAT
    }
  }
  attr {
    key: "_class"
    value {
      list {
        s: "loc:@gradients_1/Generator.1/Relu_grad/ReluGrad"
      }
    }
  }
}
node {
  name: "gradients_1/Generator.1/add_grad/tuple/control_dependency_1"
  op: "Identity"
  input: "gradients_1/Generator.1/add_grad/Reshape"
  input: "^gradients_1/Generator.1/add_grad/tuple/group_deps"
  attr {
    key: "T"
    value {
      type: DT_FLOAT
    }
  }
  attr {
    key: "_class"
    value {
      list {
        s: "loc:@gradients_1/Generator.1/add_grad/Reshape"
      }
    }
  }
}
node {
  name: "gradients_1/Generator.1/MatMul_grad/MatMul"
  op: "MatMul"
  input: "gradients_1/Generator.1/add_grad/tuple/control_dependency"
  input: "Generator.1/MatMul/ReadVariableOp"
  attr {
    key: "T"
    value {
      type: DT_FLOAT
    }
  }
  attr {
    key: "_has_manual_control_dependencies"
    value {
      b: true
    }
  }
  attr {
    key: "grad_a"
    value {
      b: true
    }
  }
  attr {
    key: "grad_b"
    value {
      b: false
    }
  }
  attr {
    key: "transpose_a"
    value {
      b: false
    }
  }
  attr {
    key: "transpose_b"
    value {
      b: true
    }
  }
}
node {
  name: "gradients_1/Generator.1/MatMul_grad/MatMul_1"
  op: "MatMul"
  input: "random_normal"
  input: "gradients_1/Generator.1/add_grad/tuple/control_dependency"
  attr {
    key: "T"
    value {
      type: DT_FLOAT
    }
  }
  attr {
    key: "_has_manual_control_dependencies"
    value {
      b: true
    }
  }
  attr {
    key: "grad_a"
    value {
      b: false
    }
  }
  attr {
    key: "grad_b"
    value {
      b: true
    }
  }
  attr {
    key: "transpose_a"
    value {
      b: true
    }
  }
  attr {
    key: "transpose_b"
    value {
      b: false
    }
  }
}
node {
  name: "gradients_1/Generator.1/MatMul_grad/tuple/group_deps"
  op: "NoOp"
  input: "^gradients_1/Generator.1/MatMul_grad/MatMul"
  input: "^gradients_1/Generator.1/MatMul_grad/MatMul_1"
  attr {
    key: "_has_manual_control_dependencies"
    value {
      b: true
    }
  }
}
node {
  name: "gradients_1/Generator.1/MatMul_grad/tuple/control_dependency"
  op: "Identity"
  input: "gradients_1/Generator.1/MatMul_grad/MatMul"
  input: "^gradients_1/Generator.1/MatMul_grad/tuple/group_deps"
  attr {
    key: "T"
    value {
      type: DT_FLOAT
    }
  }
  attr {
    key: "_class"
    value {
      list {
        s: "loc:@gradients_1/Generator.1/MatMul_grad/MatMul"
      }
    }
  }
}
node {
  name: "gradients_1/Generator.1/MatMul_grad/tuple/control_dependency_1"
  op: "Identity"
  input: "gradients_1/Generator.1/MatMul_grad/MatMul_1"
  input: "^gradients_1/Generator.1/MatMul_grad/tuple/group_deps"
  attr {
    key: "T"
    value {
      type: DT_FLOAT
    }
  }
  attr {
    key: "_class"
    value {
      list {
        s: "loc:@gradients_1/Generator.1/MatMul_grad/MatMul_1"
      }
    }
  }
}
node {
  name: "beta1_power/Initializer/initial_value"
  op: "Const"
  attr {
    key: "_class"
    value {
      list {
        s: "loc:@Generator.1/bias"
      }
    }
  }
  attr {
    key: "dtype"
    value {
      type: DT_FLOAT
    }
  }
  attr {
    key: "value"
    value {
      tensor {
        dtype: DT_FLOAT
        tensor_shape {
        }
        float_val: 0.5
      }
    }
  }
}
node {
  name: "beta1_power"
  op: "VarHandleOp"
  attr {
    key: "_class"
    value {
      list {
        s: "loc:@Generator.1/bias"
      }
    }
  }
  attr {
    key: "allowed_devices"
    value {
      list {
      }
    }
  }
  attr {
    key: "container"
    value {
      s: ""
    }
  }
  attr {
    key: "debug_name"
    value {
      s: "beta1_power/"
    }
  }
  attr {
    key: "dtype"
    value {
      type: DT_FLOAT
    }
  }
  attr {
    key: "shape"
    value {
      shape {
      }
    }
  }
  attr {
    key: "shared_name"
    value {
      s: "beta1_power"
    }
  }
}
node {
  name: "beta1_power/IsInitialized/VarIsInitializedOp"
  op: "VarIsInitializedOp"
  input: "beta1_power"
  attr {
    key: "_class"
    value {
      list {
        s: "loc:@Generator.1/bias"
      }
    }
  }
}
node {
  name: "beta1_power/Assign"
  op: "AssignVariableOp"
  input: "beta1_power"
  input: "beta1_power/Initializer/initial_value"
  attr {
    key: "_has_manual_control_dependencies"
    value {
      b: true
    }
  }
  attr {
    key: "dtype"
    value {
      type: DT_FLOAT
    }
  }
  attr {
    key: "validate_shape"
    value {
      b: false
    }
  }
}
node {
  name: "beta1_power/Read/ReadVariableOp"
  op: "ReadVariableOp"
  input: "beta1_power"
  attr {
    key: "_class"
    value {
      list {
        s: "loc:@Generator.1/bias"
      }
    }
  }
  attr {
    key: "dtype"
    value {
      type: DT_FLOAT
    }
  }
}
node {
  name: "beta2_power/Initializer/initial_value"
  op: "Const"
  attr {
    key: "_class"
    value {
      list {
        s: "loc:@Generator.1/bias"
      }
    }
  }
  attr {
    key: "dtype"
    value {
      type: DT_FLOAT
    }
  }
  attr {
    key: "value"
    value {
      tensor {
        dtype: DT_FLOAT
        tensor_shape {
        }
        float_val: 0.8999999761581421
      }
    }
  }
}
node {
  name: "beta2_power"
  op: "VarHandleOp"
  attr {
    key: "_class"
    value {
      list {
        s: "loc:@Generator.1/bias"
      }
    }
  }
  attr {
    key: "allowed_devices"
    value {
      list {
      }
    }
  }
  attr {
    key: "container"
    value {
      s: ""
    }
  }
  attr {
    key: "debug_name"
    value {
      s: "beta2_power/"
    }
  }
  attr {
    key: "dtype"
    value {
      type: DT_FLOAT
    }
  }
  attr {
    key: "shape"
    value {
      shape {
      }
    }
  }
  attr {
    key: "shared_name"
    value {
      s: "beta2_power"
    }
  }
}
node {
  name: "beta2_power/IsInitialized/VarIsInitializedOp"
  op: "VarIsInitializedOp"
  input: "beta2_power"
  attr {
    key: "_class"
    value {
      list {
        s: "loc:@Generator.1/bias"
      }
    }
  }
}
node {
  name: "beta2_power/Assign"
  op: "AssignVariableOp"
  input: "beta2_power"
  input: "beta2_power/Initializer/initial_value"
  attr {
    key: "_has_manual_control_dependencies"
    value {
      b: true
    }
  }
  attr {
    key: "dtype"
    value {
      type: DT_FLOAT
    }
  }
  attr {
    key: "validate_shape"
    value {
      b: false
    }
  }
}
node {
  name: "beta2_power/Read/ReadVariableOp"
  op: "ReadVariableOp"
  input: "beta2_power"
  attr {
    key: "_class"
    value {
      list {
        s: "loc:@Generator.1/bias"
      }
    }
  }
  attr {
    key: "dtype"
    value {
      type: DT_FLOAT
    }
  }
}
node {
  name: "Generator.1/kernel/Adam/Initializer/zeros/shape_as_tensor"
  op: "Const"
  attr {
    key: "_class"
    value {
      list {
        s: "loc:@Generator.1/kernel"
      }
    }
  }
  attr {
    key: "dtype"
    value {
      type: DT_INT32
    }
  }
  attr {
    key: "value"
    value {
      tensor {
        dtype: DT_INT32
        tensor_shape {
          dim {
            size: 2
          }
        }
        tensor_content: "d\000\000\000V\000\000\000"
      }
    }
  }
}
node {
  name: "Generator.1/kernel/Adam/Initializer/zeros/Const"
  op: "Const"
  attr {
    key: "_class"
    value {
      list {
        s: "loc:@Generator.1/kernel"
      }
    }
  }
  attr {
    key: "dtype"
    value {
      type: DT_FLOAT
    }
  }
  attr {
    key: "value"
    value {
      tensor {
        dtype: DT_FLOAT
        tensor_shape {
        }
        float_val: 0.0
      }
    }
  }
}
node {
  name: "Generator.1/kernel/Adam/Initializer/zeros"
  op: "Fill"
  input: "Generator.1/kernel/Adam/Initializer/zeros/shape_as_tensor"
  input: "Generator.1/kernel/Adam/Initializer/zeros/Const"
  attr {
    key: "T"
    value {
      type: DT_FLOAT
    }
  }
  attr {
    key: "_class"
    value {
      list {
        s: "loc:@Generator.1/kernel"
      }
    }
  }
  attr {
    key: "index_type"
    value {
      type: DT_INT32
    }
  }
}
node {
  name: "Generator.1/kernel/Adam"
  op: "VarHandleOp"
  attr {
    key: "_class"
    value {
      list {
        s: "loc:@Generator.1/kernel"
      }
    }
  }
  attr {
    key: "allowed_devices"
    value {
      list {
      }
    }
  }
  attr {
    key: "container"
    value {
      s: ""
    }
  }
  attr {
    key: "debug_name"
    value {
      s: "Generator.1/kernel/Adam/"
    }
  }
  attr {
    key: "dtype"
    value {
      type: DT_FLOAT
    }
  }
  attr {
    key: "shape"
    value {
      shape {
        dim {
          size: 100
        }
        dim {
          size: 86
        }
      }
    }
  }
  attr {
    key: "shared_name"
    value {
      s: "Generator.1/kernel/Adam"
    }
  }
}
node {
  name: "Generator.1/kernel/Adam/IsInitialized/VarIsInitializedOp"
  op: "VarIsInitializedOp"
  input: "Generator.1/kernel/Adam"
  attr {
    key: "_class"
    value {
      list {
        s: "loc:@Generator.1/kernel"
      }
    }
  }
}
node {
  name: "Generator.1/kernel/Adam/Assign"
  op: "AssignVariableOp"
  input: "Generator.1/kernel/Adam"
  input: "Generator.1/kernel/Adam/Initializer/zeros"
  attr {
    key: "_has_manual_control_dependencies"
    value {
      b: true
    }
  }
  attr {
    key: "dtype"
    value {
      type: DT_FLOAT
    }
  }
  attr {
    key: "validate_shape"
    value {
      b: false
    }
  }
}
node {
  name: "Generator.1/kernel/Adam/Read/ReadVariableOp"
  op: "ReadVariableOp"
  input: "Generator.1/kernel/Adam"
  attr {
    key: "_class"
    value {
      list {
        s: "loc:@Generator.1/kernel"
      }
    }
  }
  attr {
    key: "dtype"
    value {
      type: DT_FLOAT
    }
  }
}
node {
  name: "Generator.1/kernel/Adam_1/Initializer/zeros/shape_as_tensor"
  op: "Const"
  attr {
    key: "_class"
    value {
      list {
        s: "loc:@Generator.1/kernel"
      }
    }
  }
  attr {
    key: "dtype"
    value {
      type: DT_INT32
    }
  }
  attr {
    key: "value"
    value {
      tensor {
        dtype: DT_INT32
        tensor_shape {
          dim {
            size: 2
          }
        }
        tensor_content: "d\000\000\000V\000\000\000"
      }
    }
  }
}
node {
  name: "Generator.1/kernel/Adam_1/Initializer/zeros/Const"
  op: "Const"
  attr {
    key: "_class"
    value {
      list {
        s: "loc:@Generator.1/kernel"
      }
    }
  }
  attr {
    key: "dtype"
    value {
      type: DT_FLOAT
    }
  }
  attr {
    key: "value"
    value {
      tensor {
        dtype: DT_FLOAT
        tensor_shape {
        }
        float_val: 0.0
      }
    }
  }
}
node {
  name: "Generator.1/kernel/Adam_1/Initializer/zeros"
  op: "Fill"
  input: "Generator.1/kernel/Adam_1/Initializer/zeros/shape_as_tensor"
  input: "Generator.1/kernel/Adam_1/Initializer/zeros/Const"
  attr {
    key: "T"
    value {
      type: DT_FLOAT
    }
  }
  attr {
    key: "_class"
    value {
      list {
        s: "loc:@Generator.1/kernel"
      }
    }
  }
  attr {
    key: "index_type"
    value {
      type: DT_INT32
    }
  }
}
node {
  name: "Generator.1/kernel/Adam_1"
  op: "VarHandleOp"
  attr {
    key: "_class"
    value {
      list {
        s: "loc:@Generator.1/kernel"
      }
    }
  }
  attr {
    key: "allowed_devices"
    value {
      list {
      }
    }
  }
  attr {
    key: "container"
    value {
      s: ""
    }
  }
  attr {
    key: "debug_name"
    value {
      s: "Generator.1/kernel/Adam_1/"
    }
  }
  attr {
    key: "dtype"
    value {
      type: DT_FLOAT
    }
  }
  attr {
    key: "shape"
    value {
      shape {
        dim {
          size: 100
        }
        dim {
          size: 86
        }
      }
    }
  }
  attr {
    key: "shared_name"
    value {
      s: "Generator.1/kernel/Adam_1"
    }
  }
}
node {
  name: "Generator.1/kernel/Adam_1/IsInitialized/VarIsInitializedOp"
  op: "VarIsInitializedOp"
  input: "Generator.1/kernel/Adam_1"
  attr {
    key: "_class"
    value {
      list {
        s: "loc:@Generator.1/kernel"
      }
    }
  }
}
node {
  name: "Generator.1/kernel/Adam_1/Assign"
  op: "AssignVariableOp"
  input: "Generator.1/kernel/Adam_1"
  input: "Generator.1/kernel/Adam_1/Initializer/zeros"
  attr {
    key: "_has_manual_control_dependencies"
    value {
      b: true
    }
  }
  attr {
    key: "dtype"
    value {
      type: DT_FLOAT
    }
  }
  attr {
    key: "validate_shape"
    value {
      b: false
    }
  }
}
node {
  name: "Generator.1/kernel/Adam_1/Read/ReadVariableOp"
  op: "ReadVariableOp"
  input: "Generator.1/kernel/Adam_1"
  attr {
    key: "_class"
    value {
      list {
        s: "loc:@Generator.1/kernel"
      }
    }
  }
  attr {
    key: "dtype"
    value {
      type: DT_FLOAT
    }
  }
}
node {
  name: "Generator.1/bias/Adam/Initializer/zeros"
  op: "Const"
  attr {
    key: "_class"
    value {
      list {
        s: "loc:@Generator.1/bias"
      }
    }
  }
  attr {
    key: "dtype"
    value {
      type: DT_FLOAT
    }
  }
  attr {
    key: "value"
    value {
      tensor {
        dtype: DT_FLOAT
        tensor_shape {
          dim {
            size: 86
          }
        }
        float_val: 0.0
      }
    }
  }
}
node {
  name: "Generator.1/bias/Adam"
  op: "VarHandleOp"
  attr {
    key: "_class"
    value {
      list {
        s: "loc:@Generator.1/bias"
      }
    }
  }
  attr {
    key: "allowed_devices"
    value {
      list {
      }
    }
  }
  attr {
    key: "container"
    value {
      s: ""
    }
  }
  attr {
    key: "debug_name"
    value {
      s: "Generator.1/bias/Adam/"
    }
  }
  attr {
    key: "dtype"
    value {
      type: DT_FLOAT
    }
  }
  attr {
    key: "shape"
    value {
      shape {
        dim {
          size: 86
        }
      }
    }
  }
  attr {
    key: "shared_name"
    value {
      s: "Generator.1/bias/Adam"
    }
  }
}
node {
  name: "Generator.1/bias/Adam/IsInitialized/VarIsInitializedOp"
  op: "VarIsInitializedOp"
  input: "Generator.1/bias/Adam"
  attr {
    key: "_class"
    value {
      list {
        s: "loc:@Generator.1/bias"
      }
    }
  }
}
node {
  name: "Generator.1/bias/Adam/Assign"
  op: "AssignVariableOp"
  input: "Generator.1/bias/Adam"
  input: "Generator.1/bias/Adam/Initializer/zeros"
  attr {
    key: "_has_manual_control_dependencies"
    value {
      b: true
    }
  }
  attr {
    key: "dtype"
    value {
      type: DT_FLOAT
    }
  }
  attr {
    key: "validate_shape"
    value {
      b: false
    }
  }
}
node {
  name: "Generator.1/bias/Adam/Read/ReadVariableOp"
  op: "ReadVariableOp"
  input: "Generator.1/bias/Adam"
  attr {
    key: "_class"
    value {
      list {
        s: "loc:@Generator.1/bias"
      }
    }
  }
  attr {
    key: "dtype"
    value {
      type: DT_FLOAT
    }
  }
}
node {
  name: "Generator.1/bias/Adam_1/Initializer/zeros"
  op: "Const"
  attr {
    key: "_class"
    value {
      list {
        s: "loc:@Generator.1/bias"
      }
    }
  }
  attr {
    key: "dtype"
    value {
      type: DT_FLOAT
    }
  }
  attr {
    key: "value"
    value {
      tensor {
        dtype: DT_FLOAT
        tensor_shape {
          dim {
            size: 86
          }
        }
        float_val: 0.0
      }
    }
  }
}
node {
  name: "Generator.1/bias/Adam_1"
  op: "VarHandleOp"
  attr {
    key: "_class"
    value {
      list {
        s: "loc:@Generator.1/bias"
      }
    }
  }
  attr {
    key: "allowed_devices"
    value {
      list {
      }
    }
  }
  attr {
    key: "container"
    value {
      s: ""
    }
  }
  attr {
    key: "debug_name"
    value {
      s: "Generator.1/bias/Adam_1/"
    }
  }
  attr {
    key: "dtype"
    value {
      type: DT_FLOAT
    }
  }
  attr {
    key: "shape"
    value {
      shape {
        dim {
          size: 86
        }
      }
    }
  }
  attr {
    key: "shared_name"
    value {
      s: "Generator.1/bias/Adam_1"
    }
  }
}
node {
  name: "Generator.1/bias/Adam_1/IsInitialized/VarIsInitializedOp"
  op: "VarIsInitializedOp"
  input: "Generator.1/bias/Adam_1"
  attr {
    key: "_class"
    value {
      list {
        s: "loc:@Generator.1/bias"
      }
    }
  }
}
node {
  name: "Generator.1/bias/Adam_1/Assign"
  op: "AssignVariableOp"
  input: "Generator.1/bias/Adam_1"
  input: "Generator.1/bias/Adam_1/Initializer/zeros"
  attr {
    key: "_has_manual_control_dependencies"
    value {
      b: true
    }
  }
  attr {
    key: "dtype"
    value {
      type: DT_FLOAT
    }
  }
  attr {
    key: "validate_shape"
    value {
      b: false
    }
  }
}
node {
  name: "Generator.1/bias/Adam_1/Read/ReadVariableOp"
  op: "ReadVariableOp"
  input: "Generator.1/bias/Adam_1"
  attr {
    key: "_class"
    value {
      list {
        s: "loc:@Generator.1/bias"
      }
    }
  }
  attr {
    key: "dtype"
    value {
      type: DT_FLOAT
    }
  }
}
node {
  name: "Generator.2/kernel/Adam/Initializer/zeros/shape_as_tensor"
  op: "Const"
  attr {
    key: "_class"
    value {
      list {
        s: "loc:@Generator.2/kernel"
      }
    }
  }
  attr {
    key: "dtype"
    value {
      type: DT_INT32
    }
  }
  attr {
    key: "value"
    value {
      tensor {
        dtype: DT_INT32
        tensor_shape {
          dim {
            size: 2
          }
        }
        tensor_content: "V\000\000\000@\000\000\000"
      }
    }
  }
}
node {
  name: "Generator.2/kernel/Adam/Initializer/zeros/Const"
  op: "Const"
  attr {
    key: "_class"
    value {
      list {
        s: "loc:@Generator.2/kernel"
      }
    }
  }
  attr {
    key: "dtype"
    value {
      type: DT_FLOAT
    }
  }
  attr {
    key: "value"
    value {
      tensor {
        dtype: DT_FLOAT
        tensor_shape {
        }
        float_val: 0.0
      }
    }
  }
}
node {
  name: "Generator.2/kernel/Adam/Initializer/zeros"
  op: "Fill"
  input: "Generator.2/kernel/Adam/Initializer/zeros/shape_as_tensor"
  input: "Generator.2/kernel/Adam/Initializer/zeros/Const"
  attr {
    key: "T"
    value {
      type: DT_FLOAT
    }
  }
  attr {
    key: "_class"
    value {
      list {
        s: "loc:@Generator.2/kernel"
      }
    }
  }
  attr {
    key: "index_type"
    value {
      type: DT_INT32
    }
  }
}
node {
  name: "Generator.2/kernel/Adam"
  op: "VarHandleOp"
  attr {
    key: "_class"
    value {
      list {
        s: "loc:@Generator.2/kernel"
      }
    }
  }
  attr {
    key: "allowed_devices"
    value {
      list {
      }
    }
  }
  attr {
    key: "container"
    value {
      s: ""
    }
  }
  attr {
    key: "debug_name"
    value {
      s: "Generator.2/kernel/Adam/"
    }
  }
  attr {
    key: "dtype"
    value {
      type: DT_FLOAT
    }
  }
  attr {
    key: "shape"
    value {
      shape {
        dim {
          size: 86
        }
        dim {
          size: 64
        }
      }
    }
  }
  attr {
    key: "shared_name"
    value {
      s: "Generator.2/kernel/Adam"
    }
  }
}
node {
  name: "Generator.2/kernel/Adam/IsInitialized/VarIsInitializedOp"
  op: "VarIsInitializedOp"
  input: "Generator.2/kernel/Adam"
  attr {
    key: "_class"
    value {
      list {
        s: "loc:@Generator.2/kernel"
      }
    }
  }
}
node {
  name: "Generator.2/kernel/Adam/Assign"
  op: "AssignVariableOp"
  input: "Generator.2/kernel/Adam"
  input: "Generator.2/kernel/Adam/Initializer/zeros"
  attr {
    key: "_has_manual_control_dependencies"
    value {
      b: true
    }
  }
  attr {
    key: "dtype"
    value {
      type: DT_FLOAT
    }
  }
  attr {
    key: "validate_shape"
    value {
      b: false
    }
  }
}
node {
  name: "Generator.2/kernel/Adam/Read/ReadVariableOp"
  op: "ReadVariableOp"
  input: "Generator.2/kernel/Adam"
  attr {
    key: "_class"
    value {
      list {
        s: "loc:@Generator.2/kernel"
      }
    }
  }
  attr {
    key: "dtype"
    value {
      type: DT_FLOAT
    }
  }
}
node {
  name: "Generator.2/kernel/Adam_1/Initializer/zeros/shape_as_tensor"
  op: "Const"
  attr {
    key: "_class"
    value {
      list {
        s: "loc:@Generator.2/kernel"
      }
    }
  }
  attr {
    key: "dtype"
    value {
      type: DT_INT32
    }
  }
  attr {
    key: "value"
    value {
      tensor {
        dtype: DT_INT32
        tensor_shape {
          dim {
            size: 2
          }
        }
        tensor_content: "V\000\000\000@\000\000\000"
      }
    }
  }
}
node {
  name: "Generator.2/kernel/Adam_1/Initializer/zeros/Const"
  op: "Const"
  attr {
    key: "_class"
    value {
      list {
        s: "loc:@Generator.2/kernel"
      }
    }
  }
  attr {
    key: "dtype"
    value {
      type: DT_FLOAT
    }
  }
  attr {
    key: "value"
    value {
      tensor {
        dtype: DT_FLOAT
        tensor_shape {
        }
        float_val: 0.0
      }
    }
  }
}
node {
  name: "Generator.2/kernel/Adam_1/Initializer/zeros"
  op: "Fill"
  input: "Generator.2/kernel/Adam_1/Initializer/zeros/shape_as_tensor"
  input: "Generator.2/kernel/Adam_1/Initializer/zeros/Const"
  attr {
    key: "T"
    value {
      type: DT_FLOAT
    }
  }
  attr {
    key: "_class"
    value {
      list {
        s: "loc:@Generator.2/kernel"
      }
    }
  }
  attr {
    key: "index_type"
    value {
      type: DT_INT32
    }
  }
}
node {
  name: "Generator.2/kernel/Adam_1"
  op: "VarHandleOp"
  attr {
    key: "_class"
    value {
      list {
        s: "loc:@Generator.2/kernel"
      }
    }
  }
  attr {
    key: "allowed_devices"
    value {
      list {
      }
    }
  }
  attr {
    key: "container"
    value {
      s: ""
    }
  }
  attr {
    key: "debug_name"
    value {
      s: "Generator.2/kernel/Adam_1/"
    }
  }
  attr {
    key: "dtype"
    value {
      type: DT_FLOAT
    }
  }
  attr {
    key: "shape"
    value {
      shape {
        dim {
          size: 86
        }
        dim {
          size: 64
        }
      }
    }
  }
  attr {
    key: "shared_name"
    value {
      s: "Generator.2/kernel/Adam_1"
    }
  }
}
node {
  name: "Generator.2/kernel/Adam_1/IsInitialized/VarIsInitializedOp"
  op: "VarIsInitializedOp"
  input: "Generator.2/kernel/Adam_1"
  attr {
    key: "_class"
    value {
      list {
        s: "loc:@Generator.2/kernel"
      }
    }
  }
}
node {
  name: "Generator.2/kernel/Adam_1/Assign"
  op: "AssignVariableOp"
  input: "Generator.2/kernel/Adam_1"
  input: "Generator.2/kernel/Adam_1/Initializer/zeros"
  attr {
    key: "_has_manual_control_dependencies"
    value {
      b: true
    }
  }
  attr {
    key: "dtype"
    value {
      type: DT_FLOAT
    }
  }
  attr {
    key: "validate_shape"
    value {
      b: false
    }
  }
}
node {
  name: "Generator.2/kernel/Adam_1/Read/ReadVariableOp"
  op: "ReadVariableOp"
  input: "Generator.2/kernel/Adam_1"
  attr {
    key: "_class"
    value {
      list {
        s: "loc:@Generator.2/kernel"
      }
    }
  }
  attr {
    key: "dtype"
    value {
      type: DT_FLOAT
    }
  }
}
node {
  name: "Generator.2/bias/Adam/Initializer/zeros"
  op: "Const"
  attr {
    key: "_class"
    value {
      list {
        s: "loc:@Generator.2/bias"
      }
    }
  }
  attr {
    key: "dtype"
    value {
      type: DT_FLOAT
    }
  }
  attr {
    key: "value"
    value {
      tensor {
        dtype: DT_FLOAT
        tensor_shape {
          dim {
            size: 64
          }
        }
        float_val: 0.0
      }
    }
  }
}
node {
  name: "Generator.2/bias/Adam"
  op: "VarHandleOp"
  attr {
    key: "_class"
    value {
      list {
        s: "loc:@Generator.2/bias"
      }
    }
  }
  attr {
    key: "allowed_devices"
    value {
      list {
      }
    }
  }
  attr {
    key: "container"
    value {
      s: ""
    }
  }
  attr {
    key: "debug_name"
    value {
      s: "Generator.2/bias/Adam/"
    }
  }
  attr {
    key: "dtype"
    value {
      type: DT_FLOAT
    }
  }
  attr {
    key: "shape"
    value {
      shape {
        dim {
          size: 64
        }
      }
    }
  }
  attr {
    key: "shared_name"
    value {
      s: "Generator.2/bias/Adam"
    }
  }
}
node {
  name: "Generator.2/bias/Adam/IsInitialized/VarIsInitializedOp"
  op: "VarIsInitializedOp"
  input: "Generator.2/bias/Adam"
  attr {
    key: "_class"
    value {
      list {
        s: "loc:@Generator.2/bias"
      }
    }
  }
}
node {
  name: "Generator.2/bias/Adam/Assign"
  op: "AssignVariableOp"
  input: "Generator.2/bias/Adam"
  input: "Generator.2/bias/Adam/Initializer/zeros"
  attr {
    key: "_has_manual_control_dependencies"
    value {
      b: true
    }
  }
  attr {
    key: "dtype"
    value {
      type: DT_FLOAT
    }
  }
  attr {
    key: "validate_shape"
    value {
      b: false
    }
  }
}
node {
  name: "Generator.2/bias/Adam/Read/ReadVariableOp"
  op: "ReadVariableOp"
  input: "Generator.2/bias/Adam"
  attr {
    key: "_class"
    value {
      list {
        s: "loc:@Generator.2/bias"
      }
    }
  }
  attr {
    key: "dtype"
    value {
      type: DT_FLOAT
    }
  }
}
node {
  name: "Generator.2/bias/Adam_1/Initializer/zeros"
  op: "Const"
  attr {
    key: "_class"
    value {
      list {
        s: "loc:@Generator.2/bias"
      }
    }
  }
  attr {
    key: "dtype"
    value {
      type: DT_FLOAT
    }
  }
  attr {
    key: "value"
    value {
      tensor {
        dtype: DT_FLOAT
        tensor_shape {
          dim {
            size: 64
          }
        }
        float_val: 0.0
      }
    }
  }
}
node {
  name: "Generator.2/bias/Adam_1"
  op: "VarHandleOp"
  attr {
    key: "_class"
    value {
      list {
        s: "loc:@Generator.2/bias"
      }
    }
  }
  attr {
    key: "allowed_devices"
    value {
      list {
      }
    }
  }
  attr {
    key: "container"
    value {
      s: ""
    }
  }
  attr {
    key: "debug_name"
    value {
      s: "Generator.2/bias/Adam_1/"
    }
  }
  attr {
    key: "dtype"
    value {
      type: DT_FLOAT
    }
  }
  attr {
    key: "shape"
    value {
      shape {
        dim {
          size: 64
        }
      }
    }
  }
  attr {
    key: "shared_name"
    value {
      s: "Generator.2/bias/Adam_1"
    }
  }
}
node {
  name: "Generator.2/bias/Adam_1/IsInitialized/VarIsInitializedOp"
  op: "VarIsInitializedOp"
  input: "Generator.2/bias/Adam_1"
  attr {
    key: "_class"
    value {
      list {
        s: "loc:@Generator.2/bias"
      }
    }
  }
}
node {
  name: "Generator.2/bias/Adam_1/Assign"
  op: "AssignVariableOp"
  input: "Generator.2/bias/Adam_1"
  input: "Generator.2/bias/Adam_1/Initializer/zeros"
  attr {
    key: "_has_manual_control_dependencies"
    value {
      b: true
    }
  }
…
  input: "beta1_power_1"
  input: "Adam_1/mul"
  attr {
    key: "_class"
    value {
      list {
        s: "loc:@Discriminator.1/bias"
      }
    }
  }
  attr {
    key: "_has_manual_control_dependencies"
    value {
      b: true
    }
  }
  attr {
    key: "dtype"
    value {
      type: DT_FLOAT
    }
  }
  attr {
    key: "validate_shape"
    value {
      b: true
    }
  }
}
node {
  name: "Adam_1/ReadVariableOp_1"
  op: "ReadVariableOp"
  input: "beta1_power_1"
  input: "^Adam_1/AssignVariableOp"
  input: "^Adam_1/update_Discriminator.1/bias/ResourceApplyAdam"
  input: "^Adam_1/update_Discriminator.1/kernel/ResourceApplyAdam"
  input: "^Adam_1/update_Discriminator.2/bias/ResourceApplyAdam"
  input: "^Adam_1/update_Discriminator.2/kernel/ResourceApplyAdam"
  input: "^Adam_1/update_Discriminator.3/bias/ResourceApplyAdam"
  input: "^Adam_1/update_Discriminator.3/kernel/ResourceApplyAdam"
  input: "^Adam_1/update_Discriminator.4/bias/ResourceApplyAdam"
  input: "^Adam_1/update_Discriminator.4/kernel/ResourceApplyAdam"
  attr {
    key: "_class"
    value {
      list {
        s: "loc:@Discriminator.1/bias"
      }
    }
  }
  attr {
    key: "dtype"
    value {
      type: DT_FLOAT
    }
  }
}
node {
  name: "Adam_1/ReadVariableOp_2"
  op: "ReadVariableOp"
  input: "beta2_power_1"
  input: "^Adam_1/update_Discriminator.1/bias/ResourceApplyAdam"
  input: "^Adam_1/update_Discriminator.1/kernel/ResourceApplyAdam"
  input: "^Adam_1/update_Discriminator.2/bias/ResourceApplyAdam"
  input: "^Adam_1/update_Discriminator.2/kernel/ResourceApplyAdam"
  input: "^Adam_1/update_Discriminator.3/bias/ResourceApplyAdam"
  input: "^Adam_1/update_Discriminator.3/kernel/ResourceApplyAdam"
  input: "^Adam_1/update_Discriminator.4/bias/ResourceApplyAdam"
  input: "^Adam_1/update_Discriminator.4/kernel/ResourceApplyAdam"
  attr {
    key: "dtype"
    value {
      type: DT_FLOAT
    }
  }
}
node {
  name: "Adam_1/mul_1"
  op: "Mul"
  input: "Adam_1/ReadVariableOp_2"
  input: "Adam_1/beta2"
  attr {
    key: "T"
    value {
      type: DT_FLOAT
    }
  }
  attr {
    key: "_class"
    value {
      list {
        s: "loc:@Discriminator.1/bias"
      }
    }
  }
}
node {
  name: "Adam_1/AssignVariableOp_1"
  op: "AssignVariableOp"
  input: "beta2_power_1"
  input: "Adam_1/mul_1"
  attr {
    key: "_class"
    value {
      list {
        s: "loc:@Discriminator.1/bias"
      }
    }
  }
  attr {
    key: "_has_manual_control_dependencies"
    value {
      b: true
    }
  }
  attr {
    key: "dtype"
    value {
      type: DT_FLOAT
    }
  }
  attr {
    key: "validate_shape"
    value {
      b: true
    }
  }
}
node {
  name: "Adam_1/ReadVariableOp_3"
  op: "ReadVariableOp"
  input: "beta2_power_1"
  input: "^Adam_1/AssignVariableOp_1"
  input: "^Adam_1/update_Discriminator.1/bias/ResourceApplyAdam"
  input: "^Adam_1/update_Discriminator.1/kernel/ResourceApplyAdam"
  input: "^Adam_1/update_Discriminator.2/bias/ResourceApplyAdam"
  input: "^Adam_1/update_Discriminator.2/kernel/ResourceApplyAdam"
  input: "^Adam_1/update_Discriminator.3/bias/ResourceApplyAdam"
  input: "^Adam_1/update_Discriminator.3/kernel/ResourceApplyAdam"
  input: "^Adam_1/update_Discriminator.4/bias/ResourceApplyAdam"
  input: "^Adam_1/update_Discriminator.4/kernel/ResourceApplyAdam"
  attr {
    key: "_class"
    value {
      list {
        s: "loc:@Discriminator.1/bias"
      }
    }
  }
  attr {
    key: "dtype"
    value {
      type: DT_FLOAT
    }
  }
}
node {
  name: "Adam_1"
  op: "NoOp"
  input: "^Adam_1/AssignVariableOp"
  input: "^Adam_1/AssignVariableOp_1"
  input: "^Adam_1/update_Discriminator.1/bias/ResourceApplyAdam"
  input: "^Adam_1/update_Discriminator.1/kernel/ResourceApplyAdam"
  input: "^Adam_1/update_Discriminator.2/bias/ResourceApplyAdam"
  input: "^Adam_1/update_Discriminator.2/kernel/ResourceApplyAdam"
  input: "^Adam_1/update_Discriminator.3/bias/ResourceApplyAdam"
  input: "^Adam_1/update_Discriminator.3/kernel/ResourceApplyAdam"
  input: "^Adam_1/update_Discriminator.4/bias/ResourceApplyAdam"
  input: "^Adam_1/update_Discriminator.4/kernel/ResourceApplyAdam"
}
node {
  name: "RandomNoise/shape"
  op: "Const"
  attr {
    key: "dtype"
    value {
      type: DT_INT32
    }
  }
  attr {
    key: "value"
    value {
      tensor {
        dtype: DT_INT32
        tensor_shape {
          dim {
            size: 2
          }
        }
        tensor_content: "\020\'\000\000d\000\000\000"
      }
    }
  }
}
node {
  name: "RandomNoise/mean"
  op: "Const"
  attr {
    key: "dtype"
    value {
      type: DT_FLOAT
    }
  }
  attr {
    key: "value"
    value {
      tensor {
        dtype: DT_FLOAT
        tensor_shape {
        }
        float_val: 0.0
      }
    }
  }
}
node {
  name: "RandomNoise/stddev"
  op: "Const"
  attr {
    key: "dtype"
    value {
      type: DT_FLOAT
    }
  }
  attr {
    key: "value"
    value {
      tensor {
        dtype: DT_FLOAT
        tensor_shape {
        }
        float_val: 1.0
      }
    }
  }
}
node {
  name: "RandomNoise/RandomStandardNormal"
  op: "RandomStandardNormal"
  input: "RandomNoise/shape"
  attr {
    key: "T"
    value {
      type: DT_INT32
    }
  }
  attr {
    key: "dtype"
    value {
      type: DT_FLOAT
    }
  }
  attr {
    key: "seed"
    value {
      i: 0
    }
  }
  attr {
    key: "seed2"
    value {
      i: 0
    }
  }
}
node {
  name: "RandomNoise/mul"
  op: "Mul"
  input: "RandomNoise/RandomStandardNormal"
  input: "RandomNoise/stddev"
  attr {
    key: "T"
    value {
      type: DT_FLOAT
    }
  }
}
node {
  name: "RandomNoise"
  op: "AddV2"
  input: "RandomNoise/mul"
  input: "RandomNoise/mean"
  attr {
    key: "T"
    value {
      type: DT_FLOAT
    }
  }
}
node {
  name: "Generator.1_1/MatMul/ReadVariableOp"
  op: "ReadVariableOp"
  input: "Generator.1/kernel"
  attr {
    key: "dtype"
    value {
      type: DT_FLOAT
    }
  }
}
node {
  name: "Generator.1_1/MatMul"
  op: "MatMul"
  input: "RandomNoise"
  input: "Generator.1_1/MatMul/ReadVariableOp"
  attr {
    key: "T"
    value {
      type: DT_FLOAT
    }
  }
  attr {
    key: "grad_a"
    value {
      b: false
    }
  }
  attr {
    key: "grad_b"
    value {
      b: false
    }
  }
  attr {
    key: "transpose_a"
    value {
      b: false
    }
  }
  attr {
    key: "transpose_b"
    value {
      b: false
    }
  }
}
node {
  name: "Generator.1_1/add/ReadVariableOp"
  op: "ReadVariableOp"
  input: "Generator.1/bias"
  attr {
    key: "dtype"
    value {
      type: DT_FLOAT
    }
  }
}
node {
  name: "Generator.1_1/add"
  op: "AddV2"
  input: "Generator.1_1/MatMul"
  input: "Generator.1_1/add/ReadVariableOp"
  attr {
    key: "T"
    value {
      type: DT_FLOAT
    }
  }
}
node {
  name: "Generator.1_1/Relu"
  op: "Relu"
  input: "Generator.1_1/add"
  attr {
    key: "T"
    value {
      type: DT_FLOAT
    }
  }
}
node {
  name: "Generator.2_1/MatMul/ReadVariableOp"
  op: "ReadVariableOp"
  input: "Generator.2/kernel"
  attr {
    key: "dtype"
    value {
      type: DT_FLOAT
    }
  }
}
node {
  name: "Generator.2_1/MatMul"
  op: "MatMul"
  input: "Generator.1_1/Relu"
  input: "Generator.2_1/MatMul/ReadVariableOp"
  attr {
    key: "T"
    value {
      type: DT_FLOAT
    }
  }
  attr {
    key: "grad_a"
    value {
      b: false
    }
  }
  attr {
    key: "grad_b"
    value {
      b: false
    }
  }
  attr {
    key: "transpose_a"
    value {
      b: false
    }
  }
  attr {
    key: "transpose_b"
    value {
      b: false
    }
  }
}
node {
  name: "Generator.2_1/add/ReadVariableOp"
  op: "ReadVariableOp"
  input: "Generator.2/bias"
  attr {
    key: "dtype"
    value {
      type: DT_FLOAT
    }
  }
}
node {
  name: "Generator.2_1/add"
  op: "AddV2"
  input: "Generator.2_1/MatMul"
  input: "Generator.2_1/add/ReadVariableOp"
  attr {
    key: "T"
    value {
      type: DT_FLOAT
    }
  }
}
node {
  name: "Generator.2_1/Relu"
  op: "Relu"
  input: "Generator.2_1/add"
  attr {
    key: "T"
    value {
      type: DT_FLOAT
    }
  }
}
node {
  name: "Generator.3_1/MatMul/ReadVariableOp"
  op: "ReadVariableOp"
  input: "Generator.3/kernel"
  attr {
    key: "dtype"
    value {
      type: DT_FLOAT
    }
  }
}
node {
  name: "Generator.3_1/MatMul"
  op: "MatMul"
  input: "Generator.2_1/Relu"
  input: "Generator.3_1/MatMul/ReadVariableOp"
  attr {
    key: "T"
    value {
      type: DT_FLOAT
    }
  }
  attr {
    key: "grad_a"
    value {
      b: false
    }
  }
  attr {
    key: "grad_b"
    value {
      b: false
    }
  }
  attr {
    key: "transpose_a"
    value {
      b: false
    }
  }
  attr {
    key: "transpose_b"
    value {
      b: false
    }
  }
}
node {
  name: "Generator.3_1/add/ReadVariableOp"
  op: "ReadVariableOp"
  input: "Generator.3/bias"
  attr {
    key: "dtype"
    value {
      type: DT_FLOAT
    }
  }
}
node {
  name: "Generator.3_1/add"
  op: "AddV2"
  input: "Generator.3_1/MatMul"
  input: "Generator.3_1/add/ReadVariableOp"
  attr {
    key: "T"
    value {
      type: DT_FLOAT
    }
  }
}
node {
  name: "Generator.3_1/Sigmoid"
  op: "Sigmoid"
  input: "Generator.3_1/add"
  attr {
    key: "T"
    value {
      type: DT_FLOAT
    }
  }
}
node {
  name: "save/filename/input"
  op: "Const"
  attr {
    key: "dtype"
    value {
      type: DT_STRING
    }
  }
  attr {
    key: "value"
    value {
      tensor {
        dtype: DT_STRING
        tensor_shape {
        }
        string_val: "model"
      }
    }
  }
}
node {
  name: "save/filename"
  op: "PlaceholderWithDefault"
  input: "save/filename/input"
  attr {
    key: "dtype"
    value {
      type: DT_STRING
    }
  }
  attr {
    key: "shape"
    value {
      shape {
      }
    }
  }
}
node {
  name: "save/Const"
  op: "PlaceholderWithDefault"
  input: "save/filename"
  attr {
    key: "dtype"
    value {
      type: DT_STRING
    }
  }
  attr {
    key: "shape"
    value {
      shape {
      }
    }
  }
}
node {
  name: "save/SaveV2/tensor_names"
  op: "Const"
  attr {
    key: "dtype"
    value {
      type: DT_STRING
    }
  }
  attr {
    key: "value"
    value {
      tensor {
        dtype: DT_STRING
        tensor_shape {
          dim {
            size: 46
          }
        }
        string_val: "Discriminator.1/bias"
        string_val: "Discriminator.1/bias/Adam"
        string_val: "Discriminator.1/bias/Adam_1"
        string_val: "Discriminator.1/kernel"
        string_val: "Discriminator.1/kernel/Adam"
        string_val: "Discriminator.1/kernel/Adam_1"
        string_val: "Discriminator.2/bias"
        string_val: "Discriminator.2/bias/Adam"
        string_val: "Discriminator.2/bias/Adam_1"
        string_val: "Discriminator.2/kernel"
        string_val: "Discriminator.2/kernel/Adam"
        string_val: "Discriminator.2/kernel/Adam_1"
        string_val: "Discriminator.3/bias"
        string_val: "Discriminator.3/bias/Adam"
        string_val: "Discriminator.3/bias/Adam_1"
        string_val: "Discriminator.3/kernel"
        string_val: "Discriminator.3/kernel/Adam"
        string_val: "Discriminator.3/kernel/Adam_1"
        string_val: "Discriminator.4/bias"
        string_val: "Discriminator.4/bias/Adam"
        string_val: "Discriminator.4/bias/Adam_1"
        string_val: "Discriminator.4/kernel"
        string_val: "Discriminator.4/kernel/Adam"
        string_val: "Discriminator.4/kernel/Adam_1"
        string_val: "Generator.1/bias"
        string_val: "Generator.1/bias/Adam"
        string_val: "Generator.1/bias/Adam_1"
        string_val: "Generator.1/kernel"
        string_val: "Generator.1/kernel/Adam"
        string_val: "Generator.1/kernel/Adam_1"
        string_val: "Generator.2/bias"
        string_val: "Generator.2/bias/Adam"
        string_val: "Generator.2/bias/Adam_1"
        string_val: "Generator.2/kernel"
        string_val: "Generator.2/kernel/Adam"
        string_val: "Generator.2/kernel/Adam_1"
        string_val: "Generator.3/bias"
        string_val: "Generator.3/bias/Adam"
        string_val: "Generator.3/bias/Adam_1"
        string_val: "Generator.3/kernel"
        string_val: "Generator.3/kernel/Adam"
        string_val: "Generator.3/kernel/Adam_1"
        string_val: "beta1_power"
        string_val: "beta1_power_1"
        string_val: "beta2_power"
        string_val: "beta2_power_1"
      }
    }
  }
}
node {
  name: "save/SaveV2/shape_and_slices"
  op: "Const"
  attr {
    key: "dtype"
    value {
      type: DT_STRING
    }
  }
  attr {
    key: "value"
    value {
      tensor {
        dtype: DT_STRING
        tensor_shape {
          dim {
            size: 46
          }
        }
        string_val: ""
        string_val: ""
        string_val: ""
        string_val: ""
        string_val: ""
        string_val: ""
        string_val: ""
        string_val: ""
        string_val: ""
        string_val: ""
        string_val: ""
        string_val: ""
        string_val: ""
        string_val: ""
        string_val: ""
        string_val: ""
        string_val: ""
        string_val: ""
        string_val: ""
        string_val: ""
        string_val: ""
        string_val: ""
        string_val: ""
        string_val: ""
        string_val: ""
        string_val: ""
        string_val: ""
        string_val: ""
        string_val: ""
        string_val: ""
        string_val: ""
        string_val: ""
        string_val: ""
        string_val: ""
        string_val: ""
        string_val: ""
        string_val: ""
        string_val: ""
        string_val: ""
        string_val: ""
        string_val: ""
        string_val: ""
        string_val: ""
        string_val: ""
        string_val: ""
        string_val: ""
      }
    }
  }
}
node {
  name: "save/SaveV2"
  op: "SaveV2"
  input: "save/Const"
  input: "save/SaveV2/tensor_names"
  input: "save/SaveV2/shape_and_slices"
  input: "Discriminator.1/bias/Read/ReadVariableOp"
  input: "Discriminator.1/bias/Adam/Read/ReadVariableOp"
  input: "Discriminator.1/bias/Adam_1/Read/ReadVariableOp"
  input: "Discriminator.1/kernel/Read/ReadVariableOp"
  input: "Discriminator.1/kernel/Adam/Read/ReadVariableOp"
  input: "Discriminator.1/kernel/Adam_1/Read/ReadVariableOp"
  input: "Discriminator.2/bias/Read/ReadVariableOp"
  input: "Discriminator.2/bias/Adam/Read/ReadVariableOp"
  input: "Discriminator.2/bias/Adam_1/Read/ReadVariableOp"
  input: "Discriminator.2/kernel/Read/ReadVariableOp"
  input: "Discriminator.2/kernel/Adam/Read/ReadVariableOp"
  input: "Discriminator.2/kernel/Adam_1/Read/ReadVariableOp"
  input: "Discriminator.3/bias/Read/ReadVariableOp"
  input: "Discriminator.3/bias/Adam/Read/ReadVariableOp"
  input: "Discriminator.3/bias/Adam_1/Read/ReadVariableOp"
  input: "Discriminator.3/kernel/Read/ReadVariableOp"
  input: "Discriminator.3/kernel/Adam/Read/ReadVariableOp"
  input: "Discriminator.3/kernel/Adam_1/Read/ReadVariableOp"
  input: "Discriminator.4/bias/Read/ReadVariableOp"
  input: "Discriminator.4/bias/Adam/Read/ReadVariableOp"
  input: "Discriminator.4/bias/Adam_1/Read/ReadVariableOp"
  input: "Discriminator.4/kernel/Read/ReadVariableOp"
  input: "Discriminator.4/kernel/Adam/Read/ReadVariableOp"
  input: "Discriminator.4/kernel/Adam_1/Read/ReadVariableOp"
  input: "Generator.1/bias/Read/ReadVariableOp"
  input: "Generator.1/bias/Adam/Read/ReadVariableOp"
  input: "Generator.1/bias/Adam_1/Read/ReadVariableOp"
  input: "Generator.1/kernel/Read/ReadVariableOp"
  input: "Generator.1/kernel/Adam/Read/ReadVariableOp"
  input: "Generator.1/kernel/Adam_1/Read/ReadVariableOp"
  input: "Generator.2/bias/Read/ReadVariableOp"
  input: "Generator.2/bias/Adam/Read/ReadVariableOp"
  input: "Generator.2/bias/Adam_1/Read/ReadVariableOp"
  input: "Generator.2/kernel/Read/ReadVariableOp"
  input: "Generator.2/kernel/Adam/Read/ReadVariableOp"
  input: "Generator.2/kernel/Adam_1/Read/ReadVariableOp"
  input: "Generator.3/bias/Read/ReadVariableOp"
  input: "Generator.3/bias/Adam/Read/ReadVariableOp"
  input: "Generator.3/bias/Adam_1/Read/ReadVariableOp"
  input: "Generator.3/kernel/Read/ReadVariableOp"
  input: "Generator.3/kernel/Adam/Read/ReadVariableOp"
  input: "Generator.3/kernel/Adam_1/Read/ReadVariableOp"
  input: "beta1_power/Read/ReadVariableOp"
  input: "beta1_power_1/Read/ReadVariableOp"
  input: "beta2_power/Read/ReadVariableOp"
  input: "beta2_power_1/Read/ReadVariableOp"
  attr {
    key: "_has_manual_control_dependencies"
    value {
      b: true
    }
  }
  attr {
    key: "dtypes"
    value {
      list {
        type: DT_FLOAT
        type: DT_FLOAT
        type: DT_FLOAT
        type: DT_FLOAT
        type: DT_FLOAT
        type: DT_FLOAT
        type: DT_FLOAT
        type: DT_FLOAT
        type: DT_FLOAT
        type: DT_FLOAT
        type: DT_FLOAT
        type: DT_FLOAT
        type: DT_FLOAT
        type: DT_FLOAT
        type: DT_FLOAT
        type: DT_FLOAT
        type: DT_FLOAT
        type: DT_FLOAT
        type: DT_FLOAT
        type: DT_FLOAT
        type: DT_FLOAT
        type: DT_FLOAT
        type: DT_FLOAT
        type: DT_FLOAT
        type: DT_FLOAT
        type: DT_FLOAT
        type: DT_FLOAT
        type: DT_FLOAT
        type: DT_FLOAT
        type: DT_FLOAT
        type: DT_FLOAT
        type: DT_FLOAT
        type: DT_FLOAT
        type: DT_FLOAT
        type: DT_FLOAT
        type: DT_FLOAT
        type: DT_FLOAT
        type: DT_FLOAT
        type: DT_FLOAT
        type: DT_FLOAT
        type: DT_FLOAT
        type: DT_FLOAT
        type: DT_FLOAT
        type: DT_FLOAT
        type: DT_FLOAT
        type: DT_FLOAT
      }
    }
  }
}
node {
  name: "save/control_dependency"
  op: "Identity"
  input: "save/Const"
  input: "^save/SaveV2"
  attr {
    key: "T"
    value {
      type: DT_STRING
    }
  }
  attr {
    key: "_class"
    value {
      list {
        s: "loc:@save/Const"
      }
    }
  }
}
node {
  name: "save/RestoreV2/tensor_names"
  op: "Const"
  device: "/device:CPU:0"
  attr {
    key: "dtype"
    value {
      type: DT_STRING
    }
  }
  attr {
    key: "value"
    value {
      tensor {
        dtype: DT_STRING
        tensor_shape {
          dim {
            size: 46
          }
        }
        string_val: "Discriminator.1/bias"
        string_val: "Discriminator.1/bias/Adam"
        string_val: "Discriminator.1/bias/Adam_1"
        string_val: "Discriminator.1/kernel"
        string_val: "Discriminator.1/kernel/Adam"
        string_val: "Discriminator.1/kernel/Adam_1"
        string_val: "Discriminator.2/bias"
        string_val: "Discriminator.2/bias/Adam"
        string_val: "Discriminator.2/bias/Adam_1"
        string_val: "Discriminator.2/kernel"
        string_val: "Discriminator.2/kernel/Adam"
        string_val: "Discriminator.2/kernel/Adam_1"
        string_val: "Discriminator.3/bias"
        string_val: "Discriminator.3/bias/Adam"
        string_val: "Discriminator.3/bias/Adam_1"
        string_val: "Discriminator.3/kernel"
        string_val: "Discriminator.3/kernel/Adam"
        string_val: "Discriminator.3/kernel/Adam_1"
        string_val: "Discriminator.4/bias"
        string_val: "Discriminator.4/bias/Adam"
        string_val: "Discriminator.4/bias/Adam_1"
        string_val: "Discriminator.4/kernel"
        string_val: "Discriminator.4/kernel/Adam"
        string_val: "Discriminator.4/kernel/Adam_1"
        string_val: "Generator.1/bias"
        string_val: "Generator.1/bias/Adam"
        string_val: "Generator.1/bias/Adam_1"
        string_val: "Generator.1/kernel"
        string_val: "Generator.1/kernel/Adam"
        string_val: "Generator.1/kernel/Adam_1"
        string_val: "Generator.2/bias"
        string_val: "Generator.2/bias/Adam"
        string_val: "Generator.2/bias/Adam_1"
        string_val: "Generator.2/kernel"
        string_val: "Generator.2/kernel/Adam"
        string_val: "Generator.2/kernel/Adam_1"
        string_val: "Generator.3/bias"
        string_val: "Generator.3/bias/Adam"
        string_val: "Generator.3/bias/Adam_1"
        string_val: "Generator.3/kernel"
        string_val: "Generator.3/kernel/Adam"
        string_val: "Generator.3/kernel/Adam_1"
        string_val: "beta1_power"
        string_val: "beta1_power_1"
        string_val: "beta2_power"
        string_val: "beta2_power_1"
      }
    }
  }
}
node {
  name: "save/RestoreV2/shape_and_slices"
  op: "Const"
  device: "/device:CPU:0"
  attr {
    key: "dtype"
    value {
      type: DT_STRING
    }
  }
  attr {
    key: "value"
    value {
      tensor {
        dtype: DT_STRING
        tensor_shape {
          dim {
            size: 46
          }
        }
        string_val: ""
        string_val: ""
        string_val: ""
        string_val: ""
        string_val: ""
        string_val: ""
        string_val: ""
        string_val: ""
        string_val: ""
        string_val: ""
        string_val: ""
        string_val: ""
        string_val: ""
        string_val: ""
        string_val: ""
        string_val: ""
        string_val: ""
        string_val: ""
        string_val: ""
        string_val: ""
        string_val: ""
        string_val: ""
        string_val: ""
        string_val: ""
        string_val: ""
        string_val: ""
        string_val: ""
        string_val: ""
        string_val: ""
        string_val: ""
        string_val: ""
        string_val: ""
        string_val: ""
        string_val: ""
        string_val: ""
        string_val: ""
        string_val: ""
        string_val: ""
        string_val: ""
        string_val: ""
        string_val: ""
        string_val: ""
        string_val: ""
        string_val: ""
        string_val: ""
        string_val: ""
      }
    }
  }
}
node {
  name: "save/RestoreV2"
  op: "RestoreV2"
  input: "save/Const"
  input: "save/RestoreV2/tensor_names"
  input: "save/RestoreV2/shape_and_slices"
  device: "/device:CPU:0"
  attr {
    key: "dtypes"
    value {
      list {
        type: DT_FLOAT
        type: DT_FLOAT
        type: DT_FLOAT
        type: DT_FLOAT
        type: DT_FLOAT
        type: DT_FLOAT
        type: DT_FLOAT
        type: DT_FLOAT
        type: DT_FLOAT
        type: DT_FLOAT
        type: DT_FLOAT
        type: DT_FLOAT
        type: DT_FLOAT
        type: DT_FLOAT
        type: DT_FLOAT
        type: DT_FLOAT
        type: DT_FLOAT
        type: DT_FLOAT
        type: DT_FLOAT
        type: DT_FLOAT
        type: DT_FLOAT
        type: DT_FLOAT
        type: DT_FLOAT
        type: DT_FLOAT
        type: DT_FLOAT
        type: DT_FLOAT
        type: DT_FLOAT
        type: DT_FLOAT
        type: DT_FLOAT
        type: DT_FLOAT
        type: DT_FLOAT
        type: DT_FLOAT
        type: DT_FLOAT
        type: DT_FLOAT
        type: DT_FLOAT
        type: DT_FLOAT
        type: DT_FLOAT
        type: DT_FLOAT
        type: DT_FLOAT
        type: DT_FLOAT
        type: DT_FLOAT
        type: DT_FLOAT
        type: DT_FLOAT
        type: DT_FLOAT
        type: DT_FLOAT
        type: DT_FLOAT
      }
    }
  }
}
node {
  name: "save/Identity"
  op: "Identity"
  input: "save/RestoreV2"
  attr {
    key: "T"
    value {
      type: DT_FLOAT
    }
  }
}
node {
  name: "save/AssignVariableOp"
  op: "AssignVariableOp"
  input: "Discriminator.1/bias"
  input: "save/Identity"
  attr {
    key: "_has_manual_control_dependencies"
    value {
      b: true
    }
  }
  attr {
    key: "dtype"
    value {
      type: DT_FLOAT
    }
  }
  attr {
    key: "validate_shape"
    value {
      b: false
    }
  }
}
node {
  name: "save/Identity_1"
  op: "Identity"
  input: "save/RestoreV2:1"
  attr {
    key: "T"
    value {
      type: DT_FLOAT
    }
  }
}
node {
  name: "save/AssignVariableOp_1"
  op: "AssignVariableOp"
  input: "Discriminator.1/bias/Adam"
  input: "save/Identity_1"
  attr {
    key: "_has_manual_control_dependencies"
    value {
      b: true
    }
  }
  attr {
    key: "dtype"
    value {
      type: DT_FLOAT
    }
  }
  attr {
    key: "validate_shape"
    value {
      b: false
    }
  }
}
node {
  name: "save/Identity_2"
  op: "Identity"
  input: "save/RestoreV2:2"
  attr {
    key: "T"
    value {
      type: DT_FLOAT
    }
  }
}
node {
  name: "save/AssignVariableOp_2"
  op: "AssignVariableOp"
  input: "Discriminator.1/bias/Adam_1"
  input: "save/Identity_2"
  attr {
    key: "_has_manual_control_dependencies"
    value {
      b: true
    }
  }
  attr {
    key: "dtype"
    value {
      type: DT_FLOAT
    }
  }
  attr {
    key: "validate_shape"
    value {
      b: false
    }
  }
}
node {
  name: "save/Identity_3"
  op: "Identity"
  input: "save/RestoreV2:3"
  attr {
    key: "T"
    value {
      type: DT_FLOAT
    }
  }
}
node {
  name: "save/AssignVariableOp_3"
  op: "AssignVariableOp"
  input: "Discriminator.1/kernel"
  input: "save/Identity_3"
  attr {
    key: "_has_manual_control_dependencies"
    value {
      b: true
    }
  }
  attr {
    key: "dtype"
    value {
      type: DT_FLOAT
    }
  }
  attr {
    key: "validate_shape"
    value {
      b: false
    }
  }
}
node {
  name: "save/Identity_4"
  op: "Identity"
  input: "save/RestoreV2:4"
  attr {
    key: "T"
    value {
      type: DT_FLOAT
    }
  }
}
node {
  name: "save/AssignVariableOp_4"
  op: "AssignVariableOp"
  input: "Discriminator.1/kernel/Adam"
  input: "save/Identity_4"
  attr {
    key: "_has_manual_control_dependencies"
    value {
      b: true
    }
  }
  attr {
    key: "dtype"
    value {
      type: DT_FLOAT
    }
  }
  attr {
    key: "validate_shape"
    value {
      b: false
    }
  }
}
node {
  name: "save/Identity_5"
  op: "Identity"
  input: "save/RestoreV2:5"
  attr {
    key: "T"
    value {
      type: DT_FLOAT
    }
  }
}
node {
  name: "save/AssignVariableOp_5"
  op: "AssignVariableOp"
  input: "Discriminator.1/kernel/Adam_1"
  input: "save/Identity_5"
  attr {
    key: "_has_manual_control_dependencies"
    value {
      b: true
    }
  }
  attr {
    key: "dtype"
    value {
      type: DT_FLOAT
    }
  }
  attr {
    key: "validate_shape"
    value {
      b: false
    }
  }
}
node {
  name: "save/Identity_6"
  op: "Identity"
  input: "save/RestoreV2:6"
  attr {
    key: "T"
    value {
      type: DT_FLOAT
    }
  }
}
node {
  name: "save/AssignVariableOp_6"
  op: "AssignVariableOp"
  input: "Discriminator.2/bias"
  input: "save/Identity_6"
  attr {
    key: "_has_manual_control_dependencies"
    value {
      b: true
    }
  }
  attr {
    key: "dtype"
    value {
      type: DT_FLOAT
    }
  }
  attr {
    key: "validate_shape"
    value {
      b: false
    }
  }
}
node {
  name: "save/Identity_7"
  op: "Identity"
  input: "save/RestoreV2:7"
  attr {
    key: "T"
    value {
      type: DT_FLOAT
    }
  }
}
node {
  name: "save/AssignVariableOp_7"
  op: "AssignVariableOp"
  input: "Discriminator.2/bias/Adam"
  input: "save/Identity_7"
  attr {
    key: "_has_manual_control_dependencies"
    value {
      b: true
    }
  }
  attr {
    key: "dtype"
    value {
      type: DT_FLOAT
    }
  }
  attr {
    key: "validate_shape"
    value {
      b: false
    }
  }
}
node {
  name: "save/Identity_8"
  op: "Identity"
  input: "save/RestoreV2:8"
  attr {
    key: "T"
    value {
      type: DT_FLOAT
    }
  }
}
node {
  name: "save/AssignVariableOp_8"
  op: "AssignVariableOp"
  input: "Discriminator.2/bias/Adam_1"
  input: "save/Identity_8"
  attr {
    key: "_has_manual_control_dependencies"
    value {
      b: true
    }
  }
  attr {
    key: "dtype"
    value {
      type: DT_FLOAT
    }
  }
  attr {
    key: "validate_shape"
    value {
      b: false
    }
  }
}
node {
  name: "save/Identity_9"
  op: "Identity"
  input: "save/RestoreV2:9"
  attr {
    key: "T"
    value {
      type: DT_FLOAT
    }
  }
}
node {
  name: "save/AssignVariableOp_9"
  op: "AssignVariableOp"
  input: "Discriminator.2/kernel"
  input: "save/Identity_9"
  attr {
    key: "_has_manual_control_dependencies"
    value {
      b: true
    }
  }
  attr {
    key: "dtype"
    value {
      type: DT_FLOAT
    }
  }
  attr {
    key: "validate_shape"
    value {
      b: false
    }
  }
}
node {
  name: "save/Identity_10"
  op: "Identity"
  input: "save/RestoreV2:10"
  attr {
    key: "T"
    value {
      type: DT_FLOAT
    }
  }
}
node {
  name: "save/AssignVariableOp_10"
  op: "AssignVariableOp"
  input: "Discriminator.2/kernel/Adam"
  input: "save/Identity_10"
  attr {
    key: "_has_manual_control_dependencies"
    value {
      b: true
    }
  }
  attr {
    key: "dtype"
    value {
      type: DT_FLOAT
    }
  }
  attr {
    key: "validate_shape"
    value {
      b: false
    }
  }
}
node {
  name: "save/Identity_11"
  op: "Identity"
  input: "save/RestoreV2:11"
  attr {
    key: "T"
    value {
      type: DT_FLOAT
    }
  }
}
node {
  name: "save/AssignVariableOp_11"
  op: "AssignVariableOp"
  input: "Discriminator.2/kernel/Adam_1"
  input: "save/Identity_11"
  attr {
    key: "_has_manual_control_dependencies"
    value {
      b: true
    }
  }
  attr {
    key: "dtype"
    value {
      type: DT_FLOAT
    }
  }
  attr {
    key: "validate_shape"
    value {
      b: false
    }
  }
}
node {
  name: "save/Identity_12"
  op: "Identity"
  input: "save/RestoreV2:12"
  attr {
    key: "T"
    value {
      type: DT_FLOAT
    }
  }
}
node {
  name: "save/AssignVariableOp_12"
  op: "AssignVariableOp"
  input: "Discriminator.3/bias"
  input: "save/Identity_12"
  attr {
    key: "_has_manual_control_dependencies"
    value {
      b: true
    }
  }
  attr {
    key: "dtype"
    value {
      type: DT_FLOAT
    }
  }
  attr {
    key: "validate_shape"
    value {
      b: false
    }
  }
}
node {
  name: "save/Identity_13"
  op: "Identity"
  input: "save/RestoreV2:13"
  attr {
    key: "T"
    value {
      type: DT_FLOAT
    }
  }
}
node {
  name: "save/AssignVariableOp_13"
  op: "AssignVariableOp"
  input: "Discriminator.3/bias/Adam"
  input: "save/Identity_13"
  attr {
    key: "_has_manual_control_dependencies"
    value {
      b: true
    }
  }
  attr {
    key: "dtype"
    value {
      type: DT_FLOAT
    }
  }
  attr {
    key: "validate_shape"
    value {
      b: false
    }
  }
}
node {
  name: "save/Identity_14"
  op: "Identity"
  input: "save/RestoreV2:14"
  attr {
    key: "T"
    value {
      type: DT_FLOAT
    }
  }
}
node {
  name: "save/AssignVariableOp_14"
  op: "AssignVariableOp"
  input: "Discriminator.3/bias/Adam_1"
  input: "save/Identity_14"
  attr {
    key: "_has_manual_control_dependencies"
    value {
      b: true
    }
  }
  attr {
    key: "dtype"
    value {
      type: DT_FLOAT
    }
  }
  attr {
    key: "validate_shape"
    value {
      b: false
    }
  }
}
node {
  name: "save/Identity_15"
  op: "Identity"
  input: "save/RestoreV2:15"
  attr {
    key: "T"
    value {
      type: DT_FLOAT
    }
  }
}
node {
  name: "save/AssignVariableOp_15"
  op: "AssignVariableOp"
  input: "Discriminator.3/kernel"
  input: "save/Identity_15"
  attr {
    key: "_has_manual_control_dependencies"
    value {
      b: true
    }
  }
  attr {
    key: "dtype"
    value {
      type: DT_FLOAT
    }
  }
  attr {
    key: "validate_shape"
    value {
      b: false
    }
  }
}
node {
  name: "save/Identity_16"
  op: "Identity"
  input: "save/RestoreV2:16"
  attr {
    key: "T"
    value {
      type: DT_FLOAT
    }
  }
}
node {
  name: "save/AssignVariableOp_16"
  op: "AssignVariableOp"
  input: "Discriminator.3/kernel/Adam"
  input: "save/Identity_16"
  attr {
    key: "_has_manual_control_dependencies"
    value {
      b: true
    }
  }
  attr {
    key: "dtype"
    value {
      type: DT_FLOAT
    }
  }
  attr {
    key: "validate_shape"
    value {
      b: false
    }
  }
}
node {
  name: "save/Identity_17"
  op: "Identity"
  input: "save/RestoreV2:17"
  attr {
    key: "T"
    value {
      type: DT_FLOAT
    }
  }
}
node {
  name: "save/AssignVariableOp_17"
  op: "AssignVariableOp"
  input: "Discriminator.3/kernel/Adam_1"
  input: "save/Identity_17"
  attr {
    key: "_has_manual_control_dependencies"
    value {
      b: true
    }
  }
  attr {
    key: "dtype"
    value {
      type: DT_FLOAT
    }
  }
  attr {
    key: "validate_shape"
    value {
      b: false
    }
  }
}
node {
  name: "save/Identity_18"
  op: "Identity"
  input: "save/RestoreV2:18"
  attr {
    key: "T"
    value {
      type: DT_FLOAT
    }
  }
}
node {
  name: "save/AssignVariableOp_18"
  op: "AssignVariableOp"
  input: "Discriminator.4/bias"
  input: "save/Identity_18"
  attr {
    key: "_has_manual_control_dependencies"
    value {
      b: true
    }
  }
  attr {
    key: "dtype"
    value {
      type: DT_FLOAT
    }
  }
  attr {
    key: "validate_shape"
    value {
      b: false
    }
  }
}
node {
  name: "save/Identity_19"
  op: "Identity"
  input: "save/RestoreV2:19"
  attr {
    key: "T"
    value {
      type: DT_FLOAT
    }
  }
}
node {
  name: "save/AssignVariableOp_19"
  op: "AssignVariableOp"
  input: "Discriminator.4/bias/Adam"
  input: "save/Identity_19"
  attr {
    key: "_has_manual_control_dependencies"
    value {
      b: true
    }
  }
  attr {
    key: "dtype"
    value {
      type: DT_FLOAT
    }
  }
  attr {
    key: "validate_shape"
    value {
      b: false
    }
  }
}
node {
  name: "save/Identity_20"
  op: "Identity"
  input: "save/RestoreV2:20"
  attr {
    key: "T"
    value {
      type: DT_FLOAT
    }
  }
}
node {
  name: "save/AssignVariableOp_20"
  op: "AssignVariableOp"
  input: "Discriminator.4/bias/Adam_1"
  input: "save/Identity_20"
  attr {
    key: "_has_manual_control_dependencies"
    value {
      b: true
    }
  }
  attr {
    key: "dtype"
    value {
      type: DT_FLOAT
    }
  }
  attr {
    key: "validate_shape"
    value {
      b: false
    }
  }
}
node {
  name: "save/Identity_21"
  op: "Identity"
  input: "save/RestoreV2:21"
  attr {
    key: "T"
    value {
      type: DT_FLOAT
    }
  }
}
node {
  name: "save/AssignVariableOp_21"
  op: "AssignVariableOp"
  input: "Discriminator.4/kernel"
  input: "save/Identity_21"
  attr {
    key: "_has_manual_control_dependencies"
    value {
      b: true
    }
  }
  attr {
    key: "dtype"
    value {
      type: DT_FLOAT
    }
  }
  attr {
    key: "validate_shape"
    value {
      b: false
    }
  }
}
node {
  name: "save/Identity_22"
  op: "Identity"
  input: "save/RestoreV2:22"
  attr {
    key: "T"
    value {
      type: DT_FLOAT
    }
  }
}
node {
  name: "save/AssignVariableOp_22"
  op: "AssignVariableOp"
  input: "Discriminator.4/kernel/Adam"
  input: "save/Identity_22"
  attr {
    key: "_has_manual_control_dependencies"
    value {
      b: true
    }
  }
  attr {
    key: "dtype"
    value {
      type: DT_FLOAT
    }
  }
  attr {
    key: "validate_shape"
    value {
      b: false
    }
  }
}
node {
  name: "save/Identity_23"
  op: "Identity"
  input: "save/RestoreV2:23"
  attr {
    key: "T"
    value {
      type: DT_FLOAT
    }
  }
}
node {
  name: "save/AssignVariableOp_23"
  op: "AssignVariableOp"
  input: "Discriminator.4/kernel/Adam_1"
  input: "save/Identity_23"
  attr {
    key: "_has_manual_control_dependencies"
    value {
      b: true
    }
  }
  attr {
    key: "dtype"
    value {
      type: DT_FLOAT
    }
  }
  attr {
    key: "validate_shape"
    value {
      b: false
    }
  }
}
node {
  name: "save/Identity_24"
  op: "Identity"
  input: "save/RestoreV2:24"
  attr {
    key: "T"
    value {
      type: DT_FLOAT
    }
  }
}
node {
  name: "save/AssignVariableOp_24"
  op: "AssignVariableOp"
  input: "Generator.1/bias"
  input: "save/Identity_24"
  attr {
    key: "_has_manual_control_dependencies"
    value {
      b: true
    }
  }
  attr {
    key: "dtype"
    value {
      type: DT_FLOAT
    }
  }
  attr {
    key: "validate_shape"
    value {
      b: false
    }
  }
}
node {
  name: "save/Identity_25"
  op: "Identity"
  input: "save/RestoreV2:25"
  attr {
    key: "T"
    value {
      type: DT_FLOAT
    }
  }
}
node {
  name: "save/AssignVariableOp_25"
  op: "AssignVariableOp"
  input: "Generator.1/bias/Adam"
  input: "save/Identity_25"
  attr {
    key: "_has_manual_control_dependencies"
    value {
      b: true
    }
  }
  attr {
    key: "dtype"
    value {
      type: DT_FLOAT
    }
  }
  attr {
    key: "validate_shape"
    value {
      b: false
    }
  }
}
node {
  name: "save/Identity_26"
  op: "Identity"
  input: "save/RestoreV2:26"
  attr {
    key: "T"
    value {
      type: DT_FLOAT
    }
  }
}
node {
  name: "save/AssignVariableOp_26"
  op: "AssignVariableOp"
  input: "Generator.1/bias/Adam_1"
  input: "save/Identity_26"
  attr {
    key: "_has_manual_control_dependencies"
    value {
      b: true
    }
  }
  attr {
    key: "dtype"
    value {
      type: DT_FLOAT
    }
  }
  attr {
    key: "validate_shape"
    value {
      b: false
    }
  }
}
node {
  name: "save/Identity_27"
  op: "Identity"
  input: "save/RestoreV2:27"
  attr {
    key: "T"
    value {
      type: DT_FLOAT
    }
  }
}
node {
  name: "save/AssignVariableOp_27"
  op: "AssignVariableOp"
  input: "Generator.1/kernel"
  input: "save/Identity_27"
  attr {
    key: "_has_manual_control_dependencies"
    value {
      b: true
    }
  }
  attr {
    key: "dtype"
    value {
      type: DT_FLOAT
    }
  }
  attr {
    key: "validate_shape"
    value {
      b: false
    }
  }
}
node {
  name: "save/Identity_28"
  op: "Identity"
  input: "save/RestoreV2:28"
  attr {
    key: "T"
    value {
      type: DT_FLOAT
    }
  }
}
node {
  name: "save/AssignVariableOp_28"
  op: "AssignVariableOp"
  input: "Generator.1/kernel/Adam"
  input: "save/Identity_28"
  attr {
    key: "_has_manual_control_dependencies"
    value {
      b: true
    }
  }
  attr {
    key: "dtype"
    value {
      type: DT_FLOAT
    }
  }
  attr {
    key: "validate_shape"
    value {
      b: false
    }
  }
}
node {
  name: "save/Identity_29"
  op: "Identity"
  input: "save/RestoreV2:29"
  attr {
    key: "T"
    value {
      type: DT_FLOAT
    }
  }
}
node {
  name: "save/AssignVariableOp_29"
  op: "AssignVariableOp"
  input: "Generator.1/kernel/Adam_1"
  input: "save/Identity_29"
  attr {
    key: "_has_manual_control_dependencies"
    value {
      b: true
    }
  }
  attr {
    key: "dtype"
    value {
      type: DT_FLOAT
    }
  }
  attr {
    key: "validate_shape"
    value {
      b: false
    }
  }
}
node {
  name: "save/Identity_30"
  op: "Identity"
  input: "save/RestoreV2:30"
  attr {
    key: "T"
    value {
      type: DT_FLOAT
    }
  }
}
node {
  name: "save/AssignVariableOp_30"
  op: "AssignVariableOp"
  input: "Generator.2/bias"
  input: "save/Identity_30"
  attr {
    key: "_has_manual_control_dependencies"
    value {
      b: true
    }
  }
  attr {
    key: "dtype"
    value {
      type: DT_FLOAT
    }
  }
  attr {
    key: "validate_shape"
    value {
      b: false
    }
  }
}
node {
  name: "save/Identity_31"
  op: "Identity"
  input: "save/RestoreV2:31"
  attr {
    key: "T"
    value {
      type: DT_FLOAT
    }
  }
}
node {
  name: "save/AssignVariableOp_31"
  op: "AssignVariableOp"
  input: "Generator.2/bias/Adam"
  input: "save/Identity_31"
  attr {
    key: "_has_manual_control_dependencies"
    value {
      b: true
    }
  }
  attr {
    key: "dtype"
    value {
      type: DT_FLOAT
    }
  }
  attr {
    key: "validate_shape"
    value {
      b: false
    }
  }
}
node {
  name: "save/Identity_32"
  op: "Identity"
  input: "save/RestoreV2:32"
  attr {
    key: "T"
    value {
      type: DT_FLOAT
    }
  }
}
node {
  name: "save/AssignVariableOp_32"
  op: "AssignVariableOp"
  input: "Generator.2/bias/Adam_1"
  input: "save/Identity_32"
  attr {
    key: "_has_manual_control_dependencies"
    value {
      b: true
    }
  }
  attr {
    key: "dtype"
    value {
      type: DT_FLOAT
    }
  }
  attr {
    key: "validate_shape"
    value {
      b: false
    }
  }
}
node {
  name: "save/Identity_33"
  op: "Identity"
  input: "save/RestoreV2:33"
  attr {
    key: "T"
    value {
      type: DT_FLOAT
    }
  }
}
node {
  name: "save/AssignVariableOp_33"
  op: "AssignVariableOp"
  input: "Generator.2/kernel"
  input: "save/Identity_33"
  attr {
    key: "_has_manual_control_dependencies"
    value {
      b: true
    }
  }
  attr {
    key: "dtype"
    value {
      type: DT_FLOAT
    }
  }
  attr {
    key: "validate_shape"
    value {
      b: false
    }
  }
}
node {
  name: "save/Identity_34"
  op: "Identity"
  input: "save/RestoreV2:34"
  attr {
    key: "T"
    value {
      type: DT_FLOAT
    }
  }
}
node {
  name: "save/AssignVariableOp_34"
  op: "AssignVariableOp"
  input: "Generator.2/kernel/Adam"
  input: "save/Identity_34"
  attr {
    key: "_has_manual_control_dependencies"
    value {
      b: true
    }
  }
  attr {
    key: "dtype"
    value {
      type: DT_FLOAT
    }
  }
  attr {
    key: "validate_shape"
    value {
      b: false
    }
  }
}
node {
  name: "save/Identity_35"
  op: "Identity"
  input: "save/RestoreV2:35"
  attr {
    key: "T"
    value {
      type: DT_FLOAT
    }
  }
}
node {
  name: "save/AssignVariableOp_35"
  op: "AssignVariableOp"
  input: "Generator.2/kernel/Adam_1"
  input: "save/Identity_35"
  attr {
    key: "_has_manual_control_dependencies"
    value {
      b: true
    }
  }
  attr {
    key: "dtype"
    value {
      type: DT_FLOAT
    }
  }
  attr {
    key: "validate_shape"
    value {
      b: false
    }
  }
}
node {
  name: "save/Identity_36"
  op: "Identity"
  input: "save/RestoreV2:36"
  attr {
    key: "T"
    value {
      type: DT_FLOAT
    }
  }
}
node {
  name: "save/AssignVariableOp_36"
  op: "AssignVariableOp"
  input: "Generator.3/bias"
  input: "save/Identity_36"
  attr {
    key: "_has_manual_control_dependencies"
    value {
      b: true
    }
  }
  attr {
    key: "dtype"
    value {
      type: DT_FLOAT
    }
  }
  attr {
    key: "validate_shape"
    value {
      b: false
    }
  }
}
node {
  name: "save/Identity_37"
  op: "Identity"
  input: "save/RestoreV2:37"
  attr {
    key: "T"
    value {
      type: DT_FLOAT
    }
  }
}
node {
  name: "save/AssignVariableOp_37"
  op: "AssignVariableOp"
  input: "Generator.3/bias/Adam"
  input: "save/Identity_37"
  attr {
    key: "_has_manual_control_dependencies"
    value {
      b: true
    }
  }
  attr {
    key: "dtype"
    value {
      type: DT_FLOAT
    }
  }
  attr {
    key: "validate_shape"
    value {
      b: false
    }
  }
}
node {
  name: "save/Identity_38"
  op: "Identity"
  input: "save/RestoreV2:38"
  attr {
    key: "T"
    value {
      type: DT_FLOAT
    }
  }
}
node {
  name: "save/AssignVariableOp_38"
  op: "AssignVariableOp"
  input: "Generator.3/bias/Adam_1"
  input: "save/Identity_38"
  attr {
    key: "_has_manual_control_dependencies"
    value {
      b: true
    }
  }
  attr {
    key: "dtype"
    value {
      type: DT_FLOAT
    }
  }
  attr {
    key: "validate_shape"
    value {
      b: false
    }
  }
}
node {
  name: "save/Identity_39"
  op: "Identity"
  input: "save/RestoreV2:39"
  attr {
    key: "T"
    value {
      type: DT_FLOAT
    }
  }
}
node {
  name: "save/AssignVariableOp_39"
  op: "AssignVariableOp"
  input: "Generator.3/kernel"
  input: "save/Identity_39"
  attr {
    key: "_has_manual_control_dependencies"
    value {
      b: true
    }
  }
  attr {
    key: "dtype"
    value {
      type: DT_FLOAT
    }
  }
  attr {
    key: "validate_shape"
    value {
      b: false
    }
  }
}
node {
  name: "save/Identity_40"
  op: "Identity"
  input: "save/RestoreV2:40"
  attr {
    key: "T"
    value {
      type: DT_FLOAT
    }
  }
}
node {
  name: "save/AssignVariableOp_40"
  op: "AssignVariableOp"
  input: "Generator.3/kernel/Adam"
  input: "save/Identity_40"
  attr {
    key: "_has_manual_control_dependencies"
    value {
      b: true
    }
  }
  attr {
    key: "dtype"
    value {
      type: DT_FLOAT
    }
  }
  attr {
    key: "validate_shape"
    value {
      b: false
    }
  }
}
node {
  name: "save/Identity_41"
  op: "Identity"
  input: "save/RestoreV2:41"
  attr {
    key: "T"
    value {
      type: DT_FLOAT
    }
  }
}
node {
  name: "save/AssignVariableOp_41"
  op: "AssignVariableOp"
  input: "Generator.3/kernel/Adam_1"
  input: "save/Identity_41"
  attr {
    key: "_has_manual_control_dependencies"
    value {
      b: true
    }
  }
  attr {
    key: "dtype"
    value {
      type: DT_FLOAT
    }
  }
  attr {
    key: "validate_shape"
    value {
      b: false
    }
  }
}
node {
  name: "save/Identity_42"
  op: "Identity"
  input: "save/RestoreV2:42"
  attr {
    key: "T"
    value {
      type: DT_FLOAT
    }
  }
}
node {
  name: "save/AssignVariableOp_42"
  op: "AssignVariableOp"
  input: "beta1_power"
  input: "save/Identity_42"
  attr {
    key: "_has_manual_control_dependencies"
    value {
      b: true
    }
  }
  attr {
    key: "dtype"
    value {
      type: DT_FLOAT
    }
  }
  attr {
    key: "validate_shape"
    value {
      b: false
    }
  }
}
node {
  name: "save/Identity_43"
  op: "Identity"
  input: "save/RestoreV2:43"
  attr {
    key: "T"
    value {
      type: DT_FLOAT
    }
  }
}
node {
  name: "save/AssignVariableOp_43"
  op: "AssignVariableOp"
  input: "beta1_power_1"
  input: "save/Identity_43"
  attr {
    key: "_has_manual_control_dependencies"
    value {
      b: true
    }
  }
  attr {
    key: "dtype"
    value {
      type: DT_FLOAT
    }
  }
  attr {
    key: "validate_shape"
    value {
      b: false
    }
  }
}
node {
  name: "save/Identity_44"
  op: "Identity"
  input: "save/RestoreV2:44"
  attr {
    key: "T"
    value {
      type: DT_FLOAT
    }
  }
}
node {
  name: "save/AssignVariableOp_44"
  op: "AssignVariableOp"
  input: "beta2_power"
  input: "save/Identity_44"
  attr {
    key: "_has_manual_control_dependencies"
    value {
      b: true
    }
  }
  attr {
    key: "dtype"
    value {
      type: DT_FLOAT
    }
  }
  attr {
    key: "validate_shape"
    value {
      b: false
    }
  }
}
node {
  name: "save/Identity_45"
  op: "Identity"
  input: "save/RestoreV2:45"
  attr {
    key: "T"
    value {
      type: DT_FLOAT
    }
  }
}
node {
  name: "save/AssignVariableOp_45"
  op: "AssignVariableOp"
  input: "beta2_power_1"
  input: "save/Identity_45"
  attr {
    key: "_has_manual_control_dependencies"
    value {
      b: true
    }
  }
  attr {
    key: "dtype"
    value {
      type: DT_FLOAT
    }
  }
  attr {
    key: "validate_shape"
    value {
      b: false
    }
  }
}
node {
  name: "save/restore_all"
  op: "NoOp"
  input: "^save/AssignVariableOp"
  input: "^save/AssignVariableOp_1"
  input: "^save/AssignVariableOp_10"
  input: "^save/AssignVariableOp_11"
  input: "^save/AssignVariableOp_12"
  input: "^save/AssignVariableOp_13"
  input: "^save/AssignVariableOp_14"
  input: "^save/AssignVariableOp_15"
  input: "^save/AssignVariableOp_16"
  input: "^save/AssignVariableOp_17"
  input: "^save/AssignVariableOp_18"
  input: "^save/AssignVariableOp_19"
  input: "^save/AssignVariableOp_2"
  input: "^save/AssignVariableOp_20"
  input: "^save/AssignVariableOp_21"
  input: "^save/AssignVariableOp_22"
  input: "^save/AssignVariableOp_23"
  input: "^save/AssignVariableOp_24"
  input: "^save/AssignVariableOp_25"
  input: "^save/AssignVariableOp_26"
  input: "^save/AssignVariableOp_27"
  input: "^save/AssignVariableOp_28"
  input: "^save/AssignVariableOp_29"
  input: "^save/AssignVariableOp_3"
  input: "^save/AssignVariableOp_30"
  input: "^save/AssignVariableOp_31"
  input: "^save/AssignVariableOp_32"
  input: "^save/AssignVariableOp_33"
  input: "^save/AssignVariableOp_34"
  input: "^save/AssignVariableOp_35"
  input: "^save/AssignVariableOp_36"
  input: "^save/AssignVariableOp_37"
  input: "^save/AssignVariableOp_38"
  input: "^save/AssignVariableOp_39"
  input: "^save/AssignVariableOp_4"
  input: "^save/AssignVariableOp_40"
  input: "^save/AssignVariableOp_41"
  input: "^save/AssignVariableOp_42"
  input: "^save/AssignVariableOp_43"
  input: "^save/AssignVariableOp_44"
  input: "^save/AssignVariableOp_45"
  input: "^save/AssignVariableOp_5"
  input: "^save/AssignVariableOp_6"
  input: "^save/AssignVariableOp_7"
  input: "^save/AssignVariableOp_8"
  input: "^save/AssignVariableOp_9"
}
node {
  name: "init"
  op: "NoOp"
  input: "^Discriminator.1/bias/Adam/Assign"
  input: "^Discriminator.1/bias/Adam_1/Assign"
  input: "^Discriminator.1/bias/Assign"
  input: "^Discriminator.1/kernel/Adam/Assign"
  input: "^Discriminator.1/kernel/Adam_1/Assign"
  input: "^Discriminator.1/kernel/Assign"
  input: "^Discriminator.2/bias/Adam/Assign"
  input: "^Discriminator.2/bias/Adam_1/Assign"
  input: "^Discriminator.2/bias/Assign"
  input: "^Discriminator.2/kernel/Adam/Assign"
  input: "^Discriminator.2/kernel/Adam_1/Assign"
  input: "^Discriminator.2/kernel/Assign"
  input: "^Discriminator.3/bias/Adam/Assign"
  input: "^Discriminator.3/bias/Adam_1/Assign"
  input: "^Discriminator.3/bias/Assign"
  input: "^Discriminator.3/kernel/Adam/Assign"
  input: "^Discriminator.3/kernel/Adam_1/Assign"
  input: "^Discriminator.3/kernel/Assign"
  input: "^Discriminator.4/bias/Adam/Assign"
  input: "^Discriminator.4/bias/Adam_1/Assign"
  input: "^Discriminator.4/bias/Assign"
  input: "^Discriminator.4/kernel/Adam/Assign"
  input: "^Discriminator.4/kernel/Adam_1/Assign"
  input: "^Discriminator.4/kernel/Assign"
  input: "^Generator.1/bias/Adam/Assign"
  input: "^Generator.1/bias/Adam_1/Assign"
  input: "^Generator.1/bias/Assign"
  input: "^Generator.1/kernel/Adam/Assign"
  input: "^Generator.1/kernel/Adam_1/Assign"
  input: "^Generator.1/kernel/Assign"
  input: "^Generator.2/bias/Adam/Assign"
  input: "^Generator.2/bias/Adam_1/Assign"
  input: "^Generator.2/bias/Assign"
  input: "^Generator.2/kernel/Adam/Assign"
  input: "^Generator.2/kernel/Adam_1/Assign"
  input: "^Generator.2/kernel/Assign"
  input: "^Generator.3/bias/Adam/Assign"
  input: "^Generator.3/bias/Adam_1/Assign"
  input: "^Generator.3/bias/Assign"
  input: "^Generator.3/kernel/Adam/Assign"
  input: "^Generator.3/kernel/Adam_1/Assign"
  input: "^Generator.3/kernel/Assign"
  input: "^beta1_power/Assign"
  input: "^beta1_power_1/Assign"
  input: "^beta2_power/Assign"
  input: "^beta2_power_1/Assign"
}
versions {
  producer: 2288
}
